src/models/bebop/pretrained/generator.pt (torch_old, 467359 bytes, 7 tensors)

embedder.weight f4 [89, 64]
00000000: e2c2 94be 4953 4f3e cd5e 04be b7ab 30b9
00000010: c5bd 883e 0617 d0be da3d d4be a0b2 113e
00000020: d3e8 96bd 5e63 bdbe ae35 9e3b 69ab 813e
00000030: d837 dcbc 4d6f 883e 9e00 22bb 9f63 8b3e
00000040: 6d76 7bbe 8a25 d5be 3f71 36be 8517 8c3e
00000050: 5067 adbe 7262 c43d 6e29 ea3e ebae 47be
00000060: 6508 d43d 9011 81be 5937 4f3e af46 223e
00000070: 9196 e23e 16c9 7fbe 5d09 adbe 6288 0a3e
00000080: c27d 653e 4d5d 13bd 0ac9 b5be 8d44 093d
00000090: 85d9 bfbe e562 123e 0c83 b1be 4043 77bd
000000a0: 06f9 a2bd 485f e6be 2dc3 be3a 9981 3e3b
000000b0: 16f0 7e3e 8a4b abbe 2222 33be b23a b33e
000000c0: d477 94be db3c cc3e d904 793d 2ef3 343e
000000d0: b8b5 85be 2f61 bbbe 761c 363e 79bc 6fbc
000000e0: 127b bb3e 18fe eb3d 0217 babe f1fe 80bd
000000f0: cbc1 2e3d 7d30 0ebe cff9 9bbe 9de9 7d3d
00000100: 61e7 06bf 6e5b 333e 8577 343e f565 03be
00000110: 9d4e 76be 2def 2e3f f7e2 e8bc cf22 9b3e
00000120: 9801 353e 460a 983d ec66 973e 9a33 00be
00000130: 0071 f63d 0d64 db3d 1100 c43e 3ee8 06be
00000140: 6580 dbbc bf3c a4be 9f97 9cbe 0308 1cbe
00000150: cc1e 573d 814c eabd f2aa d3be 8cff 053e
00000160: f572 84be 8ace b53d 2bb9 003f 6329 ea3d
00000170: 8030 3d3e 3d54 afbd 661a 8e3c 9e3a 30be
00000180: ce99 c03e 7a73 71be 93f7 843e 7ed6 153d
00000190: 5638 b13e 0b77 c3bd 222e 19bf 5310 86be
000001a0: c9be a5be bbfc 803e e2c0 9a3e 4436 143e
000001b0: fbb6 2dbe aebc 8dbe e65c f73e a2a3 8fbd
000001c0: 606b 99be 8656 6c3c 5342 29bc 60c9 8a3d
000001d0: 8a11 573e c66e 61be f8e9 773e 3697 c1be
000001e0: 43a5 8fbe af42 603e 93f0 bb3e 4348 1e3e
000001f0: 85ea ba3d 45c8 b13e 488b bbbe 4d98 e3bc
00000200: e107 e1bc c904 9a3e 55f7 c2be 7f5e ff3c
00000210: c4fa e33e 1c49 2dbd ec62 74be a860 9c3e
00000220: fc64 febc 7f56 4cbe b0b6 0dbe 0df2 84be
00000230: 5bfe bfbd d8ed f83c 8eab 25be 7e58 9ebe
00000240: 5653 1ebd 8e3c d73e 2b84 c7bc 8514 de3e
00000250: 7f07 a13e 49d8 cd3d 33a5 333d 6da5 8bbe
00000260: f858 293c 0469 cabe 948a a2be 6230 903d
00000270: 5cd9 163f 556d c3bd adfe a33c c1e1 a83e
00000280: 0c80 923e bea5 103e 39d8 f3be 2ce4 633e
00000290: 2e03 67be c546 7ebd ae21 563c 3960 a43e
000002a0: 9f44 f63e 818f 00bf 0787 00bd 2a99 9e3e
000002b0: 321e 2dbe db61 f2bd 17cf 643c ec4a 123e
000002c0: e4eb a43e 0b73 9abe 2a50 6f3e b895 50be
000002d0: 8206 583e bc6e 40be e916 373d 33db 273e
000002e0: 1fad 94be 812b 843e 99bd a6be f0a7 773d
000002f0: 1b42 dabc 3849 0d3e 3862 d13e 55dd a63e
00000300: 1568 fabe 0586 95be d53e 663e 491f 72be
00000310: 17ad 9b3b 1308 a03e 1a43 7dbd 8702 173e
00000320: ff7c 62bc db1f fe3d 9502 563e 16e7 4d3e
00000330: 8bfa 8fbe 571d 8d3c e19c 58be 96eb 75be
00000340: c68c fb3d c5a8 00be 1e76 e3bd 23d8 2b3f
00000350: e053 11be 7f19 82be 91d5 8cbd 0d9d 27be
00000360: 775f adbd e893 a33e 216a c93c 0b33 debc
00000370: b64d acbd 7b9d 8abe b3fe 35be 0776 bcbe
00000380: 491b 193c 06b4 cfbd 767f 633d 6f06 243e
00000390: 6870 843e 35b3 333e 934c 26bd fb89 90bd
000003a0: 2f5d cebe 3c8a fdbd c59d 0ebd 8716 893e
000003b0: da16 24be 7f01 cdbd a8cb b9bd 20b4 f8bd
000003c0: b091 923e 787f 623e 0fb5 823e 5884 b2bd
000003d0: b9b4 04be fec1 13bf b146 2ebe 9286 f73d
000003e0: f65a 023f 92db 893e a724 b03d def6 6cbe
000003f0: 93eb cc3d a5ec 253e 4bc6 603b 383c d73d
-0.29054934 0.20246615 -0.12926789 -0.00016848637 0.26707283 -0.40642565 -0.4145344 0.14228296
-0.073686264 -0.36989874 0.0048281765 0.25326088 -0.026882097 0.26647416 -0.0024719606 0.27224442
-0.24556895 -0.41630203 -0.17816637 0.27361694 -0.33867884 0.095890895 0.45734733 -0.1950032
0.10353164 -0.25208712 0.20235957 0.15847276 0.44255498 -0.24979052 -0.33796206 0.13528588
0.22411254 -0.03597765 -0.35504943 0.03351264 -0.37470642 0.14295538 -0.34670293 -0.06036687
-0.07957654 -0.4499457 0.0014554017 0.0029068945 0.24896273 -0.3345607 -0.1749349 0.35005718
-0.28997672 0.3989018 0.06079564 0.1767089 -0.26115203 -0.36597583 0.17784294 -0.014632338
0.36617333 0.11523074 -0.3634568 -0.06298626 0.042665284 -0.13885684 -0.30464026 0.06199037
-0.52696806 0.17515346 0.17623718 -0.12831862 -0.24053426 0.68333703 -0.028428538 0.30299994
0.17676389 0.074238345 0.2957071 -0.12519684 0.12033272 0.107124425 0.382813 -0.13174531
-0.026794622 -0.32077596 -0.30584428 -0.15237431 0.052519605 -0.11440373 -0.41341358 0.13085765
-0.25868955 0.08877285 0.50282544 0.11433675 0.18475533 -0.08560989 0.017346572 -0.1720986
0.37617344 -0.23579207 0.25970134 0.03658151 0.34613293 -0.0954419 -0.5983602 -0.2618433
-0.3237212 0.25192818 0.30225283 0.14473826 -0.16964333 -0.27683014 0.48313063 -0.07013632
-0.29964733 0.014424926 -0.010330754 0.067766905 0.21002784 -0.22014913 0.24210346 -0.37810677
-0.28055772 0.21900438 0.3670698 0.15457253 0.09126762 0.34723106 -0.366297 -0.027782584
-0.027469577 0.30081776 -0.38079324 0.031172989 0.44527256 -0.04230605 -0.2386586 0.30542493
-0.031054012 -0.1995487 -0.13839221 -0.2596592 -0.09374686 0.03038685 -0.16178724 -0.3092689
-0.038653694 0.42038387 -0.024355015 0.4337503 0.31451032 0.10051019 0.043858718 -0.27274647
0.010336153 -0.39533246 -0.31746352 0.07040478 0.58925414 -0.09542338 0.0200189 0.32984737
0.28613317 0.14125726 -0.47625902 0.2225501 -0.22559807 -0.06207921 0.013069553 0.32104662
0.4809923 -0.5021897 -0.031378772 0.3097623 -0.1690605 -0.11835071 0.01396539 0.14286393
0.3221122 -0.30165896 0.23370424 -0.20369613 0.21096233 -0.18792242 0.044699583 0.16392212
-0.2903833 0.2581444 -0.32566527 0.060462892 -0.02664285 0.13797462 0.40895247 0.32590738
-0.48907533 -0.2920381 0.22484906 -0.23644747 0.0047508585 0.3125616 -0.06183157 0.14747058
-0.013823747 0.1240842 0.20899422 0.20107684 -0.28120837 0.017225904 -0.21153595 -0.2401565
0.1228271 -0.1256438 -0.111065134 0.67126673 -0.14192152 -0.25410077 -0.06876672 -0.16368504
-0.08465474 0.3194878 0.024586739 -0.027123949 -0.0841326 -0.27073273 -0.17772941 -0.36808798
0.009344884 -0.101417586 0.055541478 0.16018079 0.2586701 0.17548831 -0.04060037 -0.07057568
-0.40305468 -0.12379882 -0.03481843 0.26775 -0.16024342 -0.10010051 -0.090720475 -0.12143731
0.28626776 0.22118938 0.25528762 -0.08716649 -0.12959565 -0.57717884 -0.17019154 0.12086214
0.50920045 0.2692533 0.08600741 -0.23141047 0.1000587 0.16203554 0.003429788 0.10509533

lstm.weight_ih_l0 f4 [512, 64]
00000000: d90a 0ebf e645 053e a3d4 5cbd a0dd 3e3d
00000010: 865f 523e f163 7d3d 4e46 24be 71a8 883d
00000020: 7b0b 84bc 7279 25bd 339d ee3d 3cad 34bc
00000030: 2116 ebbc 597e 1a3e 526e d43d 30da dfbc
00000040: 096c 03be 85b3 bcbe bade f8bd f580 1c3e
00000050: 0509 4ebc 8676 8ebd b835 9fbd e109 143e
00000060: 67e4 23bd 09be 5dbe 875f f63d 9f48 85bd
00000070: 5134 713e f38a dfba f81f c7b9 c898 303d
00000080: ebf2 c33d 0cfb 6fbd c288 2dbe 1eac 1ebc
00000090: 910d 093d e4e7 0a3e 4cd3 64be fddb 98bd
000000a0: 4e3f 32be cf76 0abe e6ab c9bd 17d2 aa3d
000000b0: 39ae 623d d20a 1fbe 9690 b03d 570a ae3d
000000c0: 0cf7 25be ac21 a3bd 0e93 fa3d d81b ccbb
000000d0: c6ac 5e3d 4302 9fbd ff0c ed3d 2798 cf3c
000000e0: 6479 733c 441c f53e 0c0e 19bd 5709 1fbe
000000f0: db63 f6bd 734b f83d 83ff 7c3d 156c 0e3e
00000100: 55f1 fcbe d3ab 6d3d f16d e9bd 8893 b43d
00000110: 5120 313e 9600 f63d 2361 20bd 96d3 933d
00000120: c534 a53e 61e2 313e 5a26 fe3d cc58 07be
00000130: 9d0a 00bd 4262 af3d a8d0 743d c6f6 81be
00000140: e0be a7bd 29f4 a2be 6b05 1d3b ef98 413e
00000150: d53d 8c3e 1061 48be 5148 b8bd 4dc9 0b3e
00000160: c743 53be 6ed4 923d a0b4 f43d bc64 89bd
00000170: f388 2e3e 29d4 333e f98b 193d 36a9 93bb
00000180: 1a54 513e a063 2abe 3e49 1bbe 725b f8bd
00000190: ea5e 813e 444a 0f3e 3da1 4abe 531a 04be
000001a0: 58f7 3bbe 5180 18be 1483 21bc 8f3b a53d
000001b0: dc0f b1be eaff 86bd 2c38 aa3d 617a 3a3d
000001c0: d34b e8bc 3e8f 0abe ce4f 353e 6b8f 94bd
000001d0: 328b eb3d c8aa 22be 7a3f 933d 5397 863d
000001e0: 2cc5 90bd b2bc ea3e 7020 3cbe b850 edbd
000001f0: ad21 85bd b65f a13c f26e 103e 2d59 ed3d
00000200: 0fac 0fbf b989 de3b e5c9 adbc 124a 3cbc
00000210: cee4 3a3e 792a 013e 59a3 1cbe c142 1a3e
00000220: 1c58 6cbe 4368 61be 3c57 dc3d 662c 1abd
00000230: 6fdc dc3d fd10 023e 1d03 37bd 4479 0ebb
00000240: de05 823d 71eb 52be ab99 82bb 7493 ff3c
00000250: de33 95bc db97 b43d b30c 02be c3f1 94bc
00000260: 8822 85bd ebba bebd 80f8 6f3d 1fe9 c23d
00000270: 7dbd 243e aa4e 15bd 93b0 5a3d feca 783c
00000280: 3beb 2abd 3e1d 81bd 6660 08be 7b46 d23d
00000290: ac50 213c c6e3 1c3d 0d2e acbe b4ef bdbd
000002a0: 051d 9fbd be05 92bc 1257 35bd 25ff 143d
000002b0: fa89 dd3d 026a dcbd 2fe6 e53d d6a9 b5bd
000002c0: 1092 83bc 6f3e 7ebc e74a 0ebb c753 af3b
000002d0: 673e c6bc caf0 df3c fcae 173c f93f 123d
000002e0: dc49 ea3d 4893 1c3f eb9d 19be 4424 18bd
000002f0: 048a cdbc c6c1 df3d 48ce 7abc d6ff d7ba
00000300: f6ff 25be f224 9fbd f97e 203d 29fd 63bd
00000310: c141 5c3c 1021 273d f63a 93bd 58a3 fa3d
00000320: 6169 78be 25ad 76be 8f1b 023e 9a10 c7bd
00000330: e066 293d 947b fdbc 6d96 cdbd 03f6 69bc
00000340: 45fe 333e aca0 863c 3b42 2d3e 9d6f 903d
00000350: d180 07bc ea18 433e 987b 9b3c a071 a2be
00000360: ab7e 4ebb b070 823e 66a4 6a3c a47d 9b3e
00000370: 9526 103c c978 b6bd 01b9 83bd cec3 6fbe
00000380: 8a01 18bc e6f4 12be 1fdd 313e 224a 803d
00000390: 106c dd3d 422f c4bb fa20 29be c0e9 91bc
000003a0: bb4c 023e 9591 b53c 13a7 c63c 072d ddbd
000003b0: fb8a 1a3d 7348 b7bd 8784 38be d808 13be
000003c0: 5d9e fe3d 05ca 7c3c 7489 edbd ab3f 2e3e
000003d0: faae 64be 0c64 383b ed83 6aba a8cc 043e
000003e0: ff69 b33e 98a7 613e 5333 63be 8b9f 073e
000003f0: 9c19 5e3d 7699 95be 7182 6fbe b970 22bd
-0.554853 0.13014945 -0.053913724 0.046598077 0.20544252 0.06186289 -0.16042444 0.06672753
-0.016118756 -0.040399022 0.11651077 -0.01102763 -0.028697075 0.1508726 0.103726044 -0.02732572
-0.12834181 -0.36855713 -0.12151857 0.15283568 -0.012575393 -0.069562 -0.07773918 0.14456894
-0.040012743 -0.21654524 0.12029939 -0.06507992 0.23555113 -0.001705496 -0.00037980056 0.043114454
0.09567817 -0.058589026 -0.169467 -0.009684591 0.033460204 0.13565022 -0.22346228 -0.074638344
-0.17406961 -0.13521884 -0.0984724 0.08340853 0.055341933 -0.15531471 0.086213276 0.08498066
-0.16207522 -0.07965407 0.1223508 -0.006228905 0.05436399 -0.07764103 0.115747444 0.025341107
0.014860485 0.47873127 -0.03736691 -0.15530907 -0.12030765 0.12123766 0.061767112 0.13908418
-0.49402872 0.058025192 -0.11397923 0.08817202 0.17297484 0.120118305 -0.039155137 0.07218091
0.32266822 0.17371513 0.12409659 -0.13217467 -0.03126012 0.08563663 0.059769303 -0.25383586
-0.081907034 -0.31826904 0.0023959528 0.18905996 0.27390924 -0.19568276 -0.08998168 0.13651009
-0.20631324 0.07169424 0.11948514 -0.06708667 0.1704443 0.17561401 0.037487004 -0.0045062555
0.20442238 -0.16639566 -0.15164658 -0.12126817 0.25267726 0.13993174 -0.1978807 -0.12900667
-0.18356073 -0.14892699 -0.009857912 0.080680005 -0.34582412 -0.065917805 0.08311495 0.045526866
-0.028356468 -0.13531205 0.17706224 -0.07253917 0.11501159 -0.1588546 0.071898416 0.065718316
-0.070688576 0.45847088 -0.18371749 -0.115876615 -0.06500564 0.019698959 0.14104822 0.115892746
-0.56121916 0.00679132 -0.021214435 -0.011492269 0.18251345 0.12613858 -0.15296687 0.15064527
-0.23080486 -0.22012429 0.10758826 -0.037639998 0.10784232 0.12701793 -0.044680703 -0.002173976
0.06348775 -0.20597626 -0.003985604 0.03119824 -0.018213209 0.08818027 -0.12700157 -0.018181687
-0.06500727 -0.093129955 0.058586597 0.095171206 0.16087909 -0.036451973 0.05339105 0.015185116
-0.04172824 -0.06304406 -0.13318023 0.10267349 0.009845894 0.03830316 -0.33628884 -0.09274235
-0.07769207 -0.017825004 -0.04427249 0.036376137 0.108173326 -0.10762407 0.11225545 -0.08870284
-0.016060859 -0.015517815 -0.0021712126 0.005350563 -0.024199678 0.027336497 0.009258028 0.03570554
0.11439869 0.61162233 -0.15001647 -0.03714396 -0.025090225 0.10925631 -0.01530797 -0.0016479443
-0.16210923 -0.07770719 0.03918359 -0.055661354 0.013443411 0.040803015 -0.0718898 0.122381866
-0.24258949 -0.24089487 0.12705825 -0.09719963 0.041357875 -0.030942716 -0.10038457 -0.014279845
0.17577465 0.016434036 0.16919796 0.070525385 -0.008270458 0.19052473 0.018979833 -0.31727314
-0.0031508605 0.254766 0.014321422 0.30369294 0.008798261 -0.08909757 -0.06431771 -0.23414537
-0.009277711 -0.14351234 0.17369507 0.0626414 0.10811627 -0.005987079 -0.16516486 -0.017811656
0.12724583 0.022164145 0.02424959 -0.10799604 0.0377302 -0.089493655 -0.18019305 -0.14358842
0.12432549 0.015429025 -0.11598483 0.17016475 -0.22332373 0.0028135804 -0.000894605 0.12968695
0.35041806 0.22036588 -0.22187547 0.13244455 0.05422364 -0.29218644 -0.23389603 -0.039658282

lstm.weight_hh_l0 f4 [512, 128]
00000000: 2c17 ca3d 257b 963d 457a 18bd 975f 53bd
00000010: 9f5f 633b 762e 15bc 3d95 2cbd a4cd 9ebb
00000020: 0085 61bd 2dbc f2bd 187a 41bd ae35 92bd
00000030: 9acd d63d 0158 933d 8772 1c3c 9aa9 51b8
00000040: 1154 d53c 19d8 c5bc 443a 53bc 07cf e8bc
00000050: 7f3f 493d c6cf 623d 9af0 903d 3014 c0bc
00000060: cb23 983b 6681 6bbb de0e 39bd bf89 e139
00000070: 584f 89bd 6b6f 3d3d 0a75 e73c 16c4 ba3d
00000080: ce1b 3ebb 13ff b7bd 3a19 e7bc e49e 46bd
00000090: 45a9 c1bc e848 f0bb ecf0 f8bc bbeb 1e3c
000000a0: 18f2 5abd 6042 c5bd 654c 853d 62fd 813c
000000b0: 772d 37bd 6a8a 7d3d ff00 a33d 749a cfbd
000000c0: fcaa 863d 5978 8ebd 651d 8fbd 5c58 b7bc
000000d0: 3b25 a93b c541 a63d 8bdc 8e3d 3559 ce3c
000000e0: 9baa 9b3d 3606 893d 9a42 64bd b77f 10be
000000f0: 7164 82bd cafb d7bc 6209 abbc ae1b c7bc
00000100: d2d8 4fbd d12c 6c3d 5660 b23d f4ac 353d
00000110: e7df a0bb ae53 183a 1118 02bd edd9 373d
00000120: 7fa7 98bc 4594 02bc dcae d8bc 4e87 9b3d
00000130: 1fbf 4bbd 7926 22bd 03ba 7a3b ca3e d83c
00000140: 2103 8e3b 0cf4 9e3c 80bd 54bd 4c00 43bd
00000150: d456 dabc d94c 443d bd3a be3b 4a48 f73b
00000160: 9c87 6b3b d2f6 d43c 9c56 7f3d edc5 903c
00000170: 3e65 933c 7fc8 01bd 85ec e23c 7aec 413d
00000180: 8909 6fbd b5f6 143c e68e 373d b34a aa3d
00000190: b5a2 263c 1d01 af3d 7650 69bd 5b8b d63d
000001a0: 2ea3 8f3d ffc9 de3b 7b13 a9bd f92a f43c
000001b0: f7d9 ffbc c265 543d 983b ab3c 284a 7abc
000001c0: a2d8 133d a3a2 f1bc 1226 a53b 499c b5bb
000001d0: d158 9e3d 4a36 603c c97e 0fbd 6028 873d
000001e0: 593d 3c3b 31ab b4bc f0f4 aebc 2fc6 ba3d
000001f0: 5b46 71bd 9b56 583d 25c3 5ebd 3253 c23d
00000200: 919f 733c 324a 743d d182 79bd 7001 64bd
00000210: 11fb 5bbd a4f8 6abd feed 8fbd b6fb 783c
00000220: 8e3c 08bc 2123 e0bd 95ca a7bc 1e89 ccbc
00000230: e684 dc3d b7fa a03d d186 373d bde1 5fbd
00000240: 533d 093d 5253 a5bd df08 bdbd 05c3 9fbd
00000250: 4466 a33d e038 a43d a56b 453b a882 90bb
00000260: ef1a 8c3d 0285 6dbd ae5e 69bd a944 a2bc
00000270: 5425 a4bc 3e75 b23d 52f1 7b3c 66e7 923d
00000280: e167 383b 94fb 7bbd 278f 0abd 640b c8bd
00000290: 4b96 12bc b587 6e3d 499c c6bd e09e 4abd
000002a0: 6be2 87bd b155 02bd 5403 083d d808 773d
000002b0: 6f85 afbd c3e0 18bc a547 0b3c c264 32bd
000002c0: eb78 073d 3dfb fcbc 5b75 6fbb b09c 6abc
000002d0: 0d78 62bd 8390 ce3b c078 c53c d11c 083d
000002e0: fd07 633d acef aa3d 5f25 dbbc cfd7 afbd
000002f0: b1b7 863c 84dc 20bd cf8a 66bd 5dbe 98bd
00000300: f144 52bd 5c43 b23d be94 cf3d 822c 623c
00000310: 4b72 753d 7ca4 fc3b 18c4 09bd 54d2 4e3d
00000320: 174c 17bd 6ad4 89bd 500f 30bc 112f 753c
00000330: 9a1c 85bb 56f2 cbbc b5d7 763c 801e ea3c
00000340: f845 68bd 9abc 0b3d 61e2 7bbd 383a 1abc
00000350: 0192 a9bd f69b 9f3b 9845 cc3d de79 303b
00000360: dac2 9ebc cb6a 96bc bddd bb3d 9713 f63c
00000370: 5ac8 503c 05d6 dbbb 7186 043a b5b2 293d
00000380: bc68 76bd 8e1a 183d c5b6 af3d 4049 bf3d
00000390: 5fea 56bd 64c3 283d fbff c0bc 4ed4 c33d
000003a0: 90a6 ea3d cefc 8cbd 93d2 83bd deb1 973d
000003b0: dc23 a1bd cb6d 103d 4332 5f3c 976d 1c3d
000003c0: 5fc7 1a3d 3007 803c e2fd 1b3d b08a 953b
000003d0: 80a2 8b3d 9a00 2fbd b5bd 683a 43a9 c33c
000003e0: d0a0 71bd 134a 15bd 25f9 84bd 6404 923d
000003f0: 3883 81bd f9a0 3e3d 24f5 87bd 355c 0d3d
0.09867701 0.07347707 -0.03722598 -0.051604833 0.0034694446 -0.009105315 -0.042134512 -0.0048462916
-0.05505848 -0.11852298 -0.04723558 -0.07139145 0.10488434 0.0719452 0.00954879 -4.9987437e-05
0.026041063 -0.024150895 -0.01289231 -0.02841903 0.04913282 0.05537393 0.07077141 -0.023447126
0.0046429387 -0.0035935282 -0.045180194 0.00043017973 -0.06704587 0.046248835 0.02825405 0.09119432
-0.0029008272 -0.089841984 -0.028210271 -0.048491374 -0.023640284 -0.00733291 -0.030388318 0.009699757
-0.053453535 -0.09631801 0.06508712 0.015867893 -0.044721093 0.06189958 0.07959174 -0.101368815
0.065755814 -0.06956548 -0.069880284 -0.022381 0.005161909 0.08118013 0.06975659 0.025189022
0.076009 0.06690638 -0.05572758 -0.1411122 -0.06366814 -0.02636518 -0.020878498 -0.02430519
-0.050743885 0.057659928 0.08709781 0.044354394 -0.0049095037 0.0005810809 -0.031761233 0.044885565
-0.018634556 -0.0079699205 -0.026450567 0.07594167 -0.049742814 -0.03958747 0.0038257844 0.026397128
0.004333869 0.01940348 -0.051938534 -0.047607705 -0.026652731 0.04792485 0.005805342 0.0075464593
0.0035938984 0.0259966 0.062338457 0.017672503 0.017992612 -0.03168535 0.027700672 0.047344662
-0.058358703 0.009092023 0.044814013 0.08315029 0.010170628 0.08545134 -0.0569615 0.10475799
0.07013546 0.006798982 -0.08255669 0.029805647 -0.031231863 0.051854856 0.02090244 -0.015276469
0.03609527 -0.029496497 0.0050399387 -0.0055423123 0.07731784 0.0136848185 -0.03503302 0.06599498
0.002872309 -0.022054287 -0.02135703 0.09119832 -0.058904987 0.05281697 -0.054385323 0.094885245
0.014869587 0.05964107 -0.060915772 -0.055665433 -0.053706232 -0.05736603 -0.07027815 0.015196731
-0.008315219 -0.109442 -0.02048234 -0.024967726 0.10767536 0.0786032 0.044806305 -0.05465864
0.03350575 -0.08072533 -0.09230208 -0.07800869 0.0797849 0.080186605 0.0030123976 -0.0044101067
0.06841075 -0.057988174 -0.05697506 -0.01980813 -0.02003733 0.087137684 0.015377359 0.07173042
0.0028138089 -0.06151922 -0.033827927 -0.097677976 -0.008946965 0.05823489 -0.09697778 -0.04946792
-0.06634983 -0.031820003 0.0332063 0.06031117 -0.08570372 -0.009330931 0.008500968 -0.04355312
0.0330743 -0.030881518 -0.0036538455 -0.014319584 -0.05529027 0.0063038482 0.02410543 0.033230606
0.05542754 0.08346495 -0.026751218 -0.08586084 0.016445013 -0.0392728 -0.056284722 -0.07458184
-0.05133528 0.08704254 0.10135792 0.013804557 0.05992345 0.0077100378 -0.033634275 0.050493553
-0.0369378 -0.06729968 -0.010745838 0.014964835 -0.0040622475 -0.024895828 0.015066077 0.028578997
-0.056707352 0.03411541 -0.06149519 -0.0094132945 -0.08279801 0.004870887 0.099742115 0.0026928107
-0.019380022 -0.01836147 0.091731526 0.030038638 0.01274308 -0.0067088627 0.0005055434 0.041430194
-0.060158476 0.0371347 0.085797824 0.09340143 -0.052469607 0.041201964 -0.023559561 0.09561978
0.114575505 -0.06884156 -0.06436648 0.07406972 -0.07868168 0.035260957 0.013622823 0.03819045
0.03778779 0.015628427 0.03808392 0.004563652 0.06818104 -0.042725183 0.0008878366 0.023884421
-0.058991253 -0.036447596 -0.06492833 0.07129744 -0.06323856 0.046540234 -0.06638554 0.034511764

lstm.bias_ih_l0 f4 [512]
00000000: b973 973d ef99 993d 0752 533e fe23 2c3e
00000010: a25a 1a3e e253 dfbc 9e1e a73c ee2c 5f3d
00000020: 7972 f83d a192 3dbd 4e23 1b3d e423 8b3c
00000030: b0ee 23bd 1aad 803b 9429 f53d 88fb b53d
00000040: e4ca ee3d 313b 7e3d 6f9c b73d f253 673d
00000050: 8126 743c a5ad cf3c db26 223d 0bea 37bb
00000060: 3b92 683d d2e8 533d 9b80 793d a9db aa3d
00000070: 49ec f53d 2c71 123d 28d3 a33d a96e e13d
00000080: 12d0 053d f8ec 473e 1959 4f3d e172 d93d
00000090: cdeb 623d 8921 8bbc 5b6e 5fbd e747 db3b
000000a0: d0ad c53d ae2e 7e3d c80c 2a3d 1101 873c
000000b0: ef42 223e 5549 f73c 54b4 2b3d a634 b73d
000000c0: 628b ed3d c6e2 d33c 3505 e93d ffbc 213d
000000d0: dd98 a3bb bfd0 2bbd 6bdc 943d c6e0 0e3e
000000e0: 3642 f13c fb5f e03c 452e 093d 0cda bfbc
000000f0: 0d2a 1d3e 95ad 923d b2c7 4d3d 5ef9 11bd
00000100: 512c 8b3b 0d61 db3d 85d6 153e 134e bbbc
00000110: cb99 67bc 586f b03d 9ae2 86bc 4a61 f93d
00000120: 9421 c53c 6356 f13d caf7 d23c f9e0 cf3b
00000130: 6ad8 acbc 75c4 f63c 8879 6d3c 7d78 9c3d
00000140: 0d29 7fbc 4ea3 213e 2ea9 a33d 1d21 a93d
00000150: dccb 693d 5e14 a93d 2e0b 723d c480 c73c
00000160: d7af 25bc dfa1 583d 751b 363d 685c 803d
00000170: eead d43d f3c9 d63c 6ee5 0c3c 119e 8e3c
00000180: a4a0 b7bc 299a 05bd 48a9 993c 0d92 743d
00000190: 8197 303c 4163 ac3d 770b b43d 9942 1e3e
000001a0: 22ff 093e 9abe 4b3d 0000 e03c 2283 cf3d
000001b0: 6906 733d 4920 a43d 1189 e93b 029f 9ebd
000001c0: 5740 933d 9656 10bc 9f95 323d a90f 4c3d
000001d0: f995 ef3d 4856 c83d 6b34 5d3d 6c16 0f3d
000001e0: 2dab b13c 4ca8 173e 7da3 a13d 1168 773d
000001f0: 90ee be3d 2ae9 2a3e d768 a93d 0551 d73d
00000200: 0252 ab3d 84f9 913d 6ec6 5c3d f0e3 933d
00000210: 0d75 17bc 2bbe 49bd 5f45 8d3d 38ae 773c
00000220: 7db7 a03d 4daa 683d fd2a cc3c 4287 b43d
00000230: 0bca 2fbd 99cb 4f3d 243e da3b 21e2 123e
00000240: 0a7b 223d b7a9 1d3d 58e1 a83d f389 773e
00000250: 374d d33a 0786 b83d f569 173d 0d06 803c
00000260: 28fb 4c3d 41f4 8b3d d173 9e3d 8549 743d
00000270: 8d98 2e3d d8e1 70bb 915b ef3c 5f19 66bc
00000280: 78bd 9e3b d4af b83d 80ea d83a cdbe 8abc
00000290: bb87 073d 34cb 95bc 43c3 6b3d d7b8 12bc
000002a0: d67c f43c ab67 973d 7406 9c3d 7063 a93d
000002b0: 52a8 883d 2e3c 323d 9750 e83b 78c9 683c
000002c0: f451 28bc 699b bb3b aecd 823b 133a 20bb
000002d0: 7d4a 9bba 636a 0dbc 3541 bc3c 8ae6 023d
000002e0: e07d 963d eba3 d63c 9a7c 6e3d 29af 9bba
000002f0: c8a0 6c3e d04f ab3d f525 7b3d 2c24 c8bc
00000300: ee27 2d3d c710 683d d432 013e 5847 133c
00000310: b175 e6bb eab1 a13d 073e 9abc 5332 973d
00000320: 7585 923b 869b 8e3d 5ea4 e43b 3f76 923c
00000330: 6b11 e3b9 f4c9 c43b 2631 ad3d 4dd2 8b3d
00000340: 2713 793c a0e4 b43d 1038 9d3d 8701 8e3d
00000350: 7394 003d 0afd 21bb fa58 1b3d c38b ff3c
00000360: 4f70 863c 0c51 393d 515d 083c 614e 153d
00000370: 6ac4 ed3b 1076 ee3c 60fa 873b 7065 143d
00000380: b75d 8c3d 8a8d 073d 9825 75bb 227e bb3c
00000390: c384 9f3b 7a3e e23c b2fc 55bb 2e48 293d
000003a0: f0e7 a33d 8f52 583d e658 c03d 7e9c 823d
000003b0: a476 af3c 8036 903b c51c 773d 6e36 033e
000003c0: 6d4b 223d 1b71 14bc 841a 693d 1f57 5b3d
000003d0: e595 843c 8ea1 913d 056b e43d 9fed ab3d
000003e0: 8ab6 9ebb fba8 863d 473b 183d aa4d 2b3d
000003f0: 1641 3f3d f6e4 893c a103 fe3c 5130 143d
0.07395119 0.07500064 0.2063676 0.16810605 0.15073636 -0.027261678 0.020400342 0.054486208
0.12131209 -0.046282414 0.037875466 0.016984887 -0.040022552 0.0039268853 0.11970821 0.088858664
0.11659792 0.062068168 0.08965384 0.05647654 0.014901758 0.025351355 0.039587837 -0.0028063084
0.05678008 0.051735707 0.060913663 0.08342678 0.120079584 0.03575246 0.07999259 0.11007435
0.032669134 0.1952399 0.05062208 0.106176145 0.05540066 -0.016983764 -0.054548603 0.006691921
0.09652293 0.062056236 0.041516095 0.01648 0.15845846 0.030186335 0.04192002 0.08945589
0.11598851 0.02586497 0.11377946 0.03948688 -0.004992588 -0.041947123 0.07268604 0.13952932
0.029450517 0.027389517 0.03349139 -0.023419403 0.15348072 0.071620144 0.050239272 -0.035638206
0.0042472263 0.1071187 0.14632614 -0.022864377 -0.014135788 0.08614987 -0.016465474 0.121767595
0.024063863 0.11784055 0.02575292 0.0063439575 -0.021099288 0.030122975 0.014494307 0.07640169
-0.015573752 0.15784952 0.07991253 0.08258269 0.05707918 0.08255838 0.059092693 0.024353392
-0.010112724 0.052888747 0.04445978 0.06267625 0.10384737 0.026219344 0.008599622 0.017409356
-0.022415467 -0.03261772 0.018757477 0.059709597 0.010778309 0.08417369 0.08791249 0.15455092
0.13476232 0.04974232 0.02734375 0.101324335 0.059332285 0.080139704 0.0071269353 -0.07745172
0.07190006 -0.008809706 0.04359972 0.049819622 0.11698527 0.09782082 0.054005068 0.034933493
0.021688068 0.14810294 0.07892511 0.06040198 0.09322846 0.16690508 0.0827195 0.105135
0.08365251 0.071276695 0.053900175 0.0722121 -0.009244216 -0.049253624 0.06897997 0.015117221
0.078474976 0.056803036 0.024922842 0.08814861 -0.042917293 0.050731275 0.00666024 0.14344074
0.03966812 0.03849193 0.08246106 0.24173717 0.0016121034 0.09009939 0.036966283 0.015627885
0.05004421 0.06833697 0.07736934 0.059640426 0.042625953 -0.0036755707 0.029218467 -0.014044135
0.004844364 0.090179116 0.0016549379 -0.016936684 0.033088427 -0.018285371 0.057559263 -0.008955202
0.029844683 0.0739282 0.07618418 0.08270919 0.066727296 0.043514423 0.007089685 0.01420819
-0.010273445 0.0057253134 0.003991804 -0.0024448677 -0.0011847761 -0.008631322 0.022980312 0.03195814
0.073482275 0.026201209 0.058224298 -0.0011877763 0.23108208 0.083648324 0.061315496 -0.02443131
0.042274408 0.056656625 0.12617046 0.008989178 -0.007033073 0.078952625 -0.018828405 0.073826455
0.0044714757 0.069632575 0.006977602 0.01787865 -0.0004330979 0.00600552 0.0845664 0.06827221
0.01520232 0.08832669 0.07676709 0.06933885 0.031391572 -0.0024717473 0.03792665 0.031194573
0.016410975 0.045243308 0.00832303 0.0364517 0.0072560804 0.029109031 0.00414972 0.03622955
0.06853812 0.033093967 -0.003740644 0.022887293 0.0048681214 0.027617682 -0.003265184 0.0413286
0.08003223 0.05281311 0.09391956 0.06377505 0.021418877 0.004401028 0.06033017 0.12813732
0.039622713 -0.00906017 0.056910053 0.053549882 0.016184757 0.07110892 0.11153225 0.08394932
-0.0048435377 0.06575199 0.037165906 0.041822113 0.04669293 0.01683281 0.03100759 0.03617889

lstm.bias_hh_l0 f4 [512]
00000000: 75ac 6d3d f756 cc3d 835d 103e f660 f43d
00000010: 362e 113e 7cf4 17bd 8030 213d 479e c13d
00000020: f384 4f3d 2db6 8ebd 3c94 813d 65aa c93d
00000030: 46b2 81bd 72bd d63c 39e4 a13d 665e a63c
00000040: d319 7d3d cdc7 b73d 6cf8 493d ac7d 863d
00000050: 6d2c 9fbc 5e6f cc3d 69bc b03d 7e1a 003d
00000060: a85a 203d 2a2c 803d 7a71 9a3d 48dc 973d
00000070: 204b 063e f3b6 963d b968 ac3d dd5f 0e3d
00000080: 3160 1d3b 8d14 4a3e 030a fe3b b238 673d
00000090: 1b65 d83d bab2 9b3c 410d 38bd 7e7c 01bd
000000a0: ef60 b53d f491 1a3d f9fa 383d ce8e c93c
000000b0: 4dc6 f63d 385a ee3c 1252 e33c 465d d13d
000000c0: d9b8 2a3d cbe8 883c 2221 dc3d e9d7 ba3d
000000d0: 701c 1abc 344b d8bc ceee a63d 8671 eb3d
000000e0: 548a 323d ceae da3d b5ba ea3d 0665 b3bc
000000f0: 4fd0 e73d 63d0 9a3d eaf3 c43c 798e 95bb
00000100: df18 273c 51f4 023e fb7c 323e d5b0 f93b
00000110: bee3 b53c f3be d73d 8157 1a3d e2ca a03d
00000120: e668 133d def9 ba3d 1c6e b33d f033 a93c
00000130: 7853 5abd 1754 4ebb b2da 933c a796 063d
00000140: 601b 4e3b 1d48 463e 6a4e f03d 39a8 a33d
00000150: def1 6a3d 5f5f b8ba d3a0 c23d e6a9 3f3b
00000160: 34a7 e1bc f9ec 673d 2c2c a83d 29d1 203d
00000170: ff04 cf3d 86bc 3d3b 31d0 933d 94aa 5f3d
00000180: 9129 fbbb 8bda 3bbd 4aff 983c 0c8d c63c
00000190: a128 b53d f044 b33d 0baf a63d e304 e53d
000001a0: e58d bc3d 4ede 033d fa67 823c b33f 013e
000001b0: cbf4 ff3c f80b 813d f8f5 9b3d 573d c8bd
000001c0: 61cb 2e3d 8bfb b5bc e459 6c3d 2549 643d
000001d0: 3596 b93d e325 993d 5055 04bc b5be 653c
000001e0: 1bcf 563d a4d9 ce3d 0876 703d 22c2 b03d
000001f0: cb50 a63d a4c3 1d3e 87d2 7d3d 1b24 cd3d
00000200: 33f0 0f3d f18e b53d 2a83 d33d b137 833d
00000210: 3845 613c 5ffe c2bc 57b8 91bc c500 663d
00000220: 44d0 0e3d 073c 273c bb56 973d a631 4d3d
00000230: 0a95 84bc a3b4 31bb 94fd 953d 3fa2 1e3e
00000240: 0b4f 363c 0f7f 053c 131f 00bc afa4 683e
00000250: aa96 193d 1ee0 353b 5621 25bb 251b cfbc
00000260: a031 b43b e673 a73c d320 7b3c f211 633c
00000270: 8c8e 11bc 3a81 113d 5738 6b3d 98c6 993d
00000280: 28bd 6bbb bd70 ab3d ce5c 563d 8dea 0e3d
00000290: 9d7f dc3c ed27 1bbd 19d3 5a3d 2407 baba
000002a0: 0ca0 273c a85c 813d 0959 a63d b289 c53c
000002b0: ee41 9a3d 2e95 e53c 5c0f b33c ed4b 803d
000002c0: d7f7 f73c 35b8 613d 1fdc 0c3d 8e82 363c
000002d0: e390 49bc 5cbb 04bb c27d a53b 3e66 033d
000002e0: 4518 e13c b23b b63d fee2 703d 24b7 653d
000002f0: be63 973e 7e6f 3d3d 42d1 a23d 7721 923c
00000300: 03a5 8a3d 520c 813d afa0 5c3d 4681 493b
00000310: fe12 f23c f467 e93c 230f 633c c375 b03d
00000320: c9cd a53d fcb2 473c 496b 923c d317 ceba
00000330: b68d 2c3c c2af 9b3c 8192 e13c f4dc 203c
00000340: 1d47 de3b 9d9a a13d c926 f13c 95b3 4f3d
00000350: 76e6 ce3d e756 9e3d 63b9 8c3d f8ed df3b
00000360: 750e 7a3d f117 c43d 76f3 213c 586d 90bc
00000370: 278c a23d 0c48 6b3d 2df1 1fbb d47b 743c
00000380: 8560 0c3d 5eb9 a03c 2f2e a53c 14f6 523d
00000390: ac6c e03a 956b 4f3d 2ba0 8d3c 785d 7b3d
000003a0: c1ae a93d c443 6e3d 6af5 293e 14ca 533d
000003b0: 1ad5 8b3d 7097 9d3b 114e be3d 0551 ba3d
000003c0: b5f4 8b3b 8fed 2c3d e096 3c3d 6def 9d3d
000003d0: 6086 973d 8ba7 c93d 626d eb3c f25a b03d
000003e0: 6493 98bc d91b af3d 8b64 363c 7de8 a23d
000003f0: 548a 9e3d 0385 163d a447 46bb 2ad7 933d
0.058025796 0.09977525 0.14098172 0.11932556 0.14177784 -0.037098393 0.039352894 0.09454017
0.0506639 -0.06968341 0.063271016 0.09846953 -0.06332831 0.026213381 0.07904858 0.020308685
0.061792206 0.08973656 0.04930918 0.06566939 -0.019430364 0.09982179 0.086296864 0.031275265
0.039148957 0.062584236 0.07541175 0.07415062 0.13114595 0.073591135 0.08418412 0.03475939
0.0024013633 0.19734402 0.0077526583 0.056450553 0.10566159 0.019006122 -0.044934515 -0.031612866
0.08856379 0.037736848 0.04516122 0.024604227 0.120495416 0.029095754 0.027749095 0.102228686
0.04168019 0.016712567 0.10748507 0.09123213 -0.009406194 -0.026403047 0.08151017 0.11496262
0.04358895 0.106778726 0.11461393 -0.021898758 0.113190286 0.07559278 0.024042089 -0.004564103
0.010198801 0.12788512 0.17430489 0.007619957 0.022203322 0.105344675 0.037681106 0.07851197
0.03598871 0.0912969 0.08761236 0.020654649 -0.05330226 -0.0031483227 0.018048618 0.032858517
0.0031449422 0.19363447 0.11733706 0.0799107 0.05735957 -0.0014066509 0.09503331 0.0029245554
-0.027545549 0.05662248 0.0821155 0.03926197 0.10108375 0.002895148 0.07217444 0.054606035
-0.007664867 -0.045862716 0.018676419 0.024237178 0.0884564 0.08753383 0.081388555 0.11182573
0.09206752 0.03219443 0.01591872 0.12621956 0.031244656 0.06301111 0.07615274 -0.09777325
0.042674426 -0.022214672 0.057702914 0.05573382 0.09061853 0.074779294 -0.008076981 0.014022519
0.052443605 0.101001054 0.058706313 0.08630778 0.08120879 0.15406662 0.061968353 0.10016652
0.03514118 0.088651545 0.10327752 0.06407107 0.013749413 -0.023802934 -0.017788095 0.056153078
0.034866586 0.010207183 0.073895894 0.050096177 -0.016184349 -0.0027115725 0.07323757 0.1549158
0.011127244 0.008147969 -0.007819909 0.22719072 0.0374972 0.0027751992 -0.0025196872 -0.025281498
0.00549908 0.020441007 0.01532765 0.013859259 -0.0088840835 0.03552363 0.057426777 0.07508582
-0.00359709 0.083711125 0.0523346 0.034891654 0.02691632 -0.037879873 0.053423975 -0.0014192802
0.010231029 0.06316501 0.08122451 0.02411351 0.07532106 0.028025236 0.02185791 0.06264482
0.030269546 0.055107314 0.03438961 0.011139525 -0.01230261 -0.0020253276 0.005050392 0.032079928
0.027477393 0.08898105 0.058810227 0.05608286 0.29568285 0.046248905 0.07950069 0.017838223
0.06769755 0.06301178 0.053864177 0.003074722 0.029550072 0.028491952 0.013858589 0.08616211
0.08095891 0.012188669 0.017873423 -0.0015723653 0.010531833 0.019004706 0.027535679 0.009818304
0.0067833797 0.07890818 0.02943744 0.050708372 0.10102551 0.07731419 0.06871297 0.006833788
0.061048944 0.09574879 0.009884706 -0.017630264 0.07936888 0.057441756 -0.0024405227 0.014922101
0.034271736 0.01961964 0.020163624 0.05150421 0.001712223 0.050639708 0.017288288 0.061368436
0.08285285 0.058170095 0.16597524 0.05170639 0.06827755 0.0048093125 0.09292234 0.090974845
0.0042711147 0.04221874 0.046042323 0.077116825 0.07398677 0.098464094 0.028738681 0.086110964
-0.018624969 0.085502334 0.01113237 0.079545 0.07741228 0.036747944 -0.0030255103 0.07218774

fc.weight f4 [89, 128]
00000000: 7527 c33d 120a 31bd 7f97 48bd 19bd a53d
00000010: 4c07 0bbc 98e1 c8bc c0a9 b7bc 0302 3f3c
00000020: c75f 87bd 7d68 80bd 8a1a 46bd 0d89 1fbe
00000030: dff7 413e 63ec 283e 26b0 3bbd 4a0b 0cbe
00000040: 25fc f5bc 38cc 65bd 3741 373c 93c5 29be
00000050: 2e97 983d 2014 f63d 5eec 32bc d897 56bd
00000060: 9cf9 413e 1629 ae3d 0acc cdbd 534c b0bc
00000070: f8e8 0fbd 6fde e23d bd55 e03d 29aa d1bc
00000080: 2a78 dc3c 1275 8d3c 42c4 a4bc 9f85 09bd
00000090: 090a d3bc 6518 083e 0241 433e a13f 56bd
000000a0: b46a 0fbd 3730 75bd 7b5e 733d 5e27 08bd
000000b0: 9b4e 813c 836b e2bc bcc3 ba3d a7f2 0bbd
000000c0: b9ac 883d 476c 773b 1cc1 f6bd 2c35 3ebd
000000d0: e18c 04be 0c57 1abb abf8 4abd f09d 593d
000000e0: e355 803d 1f96 b5bd cdc7 69bd 6931 03bd
000000f0: bc5d 9e3e 6ddd 31bc 9874 c6bc a6ec cdbd
00000100: 2f9e ed3c dd68 653d 56cc 9e3c 3a94 983e
00000110: e254 be3d 06db a5bd 3737 a7bd c823 b43d
00000120: 353c 4bbd 9afd aebd 68e9 acbc 23e5 19bd
00000130: 360e 93bd 9912 18be a288 3bbd 7b5e e23d
00000140: 3993 16be 0603 e03d eb17 68bd 1559 a1bd
00000150: 63d2 1cbd 042b dd3c 030e abbd 4273 8d3d
00000160: a314 773c b6f6 b33d 8a60 ffbd 9162 7fbe
00000170: 9fca 0b3d e097 4f3e 8471 db3d f66f af3d
00000180: 5c8e 9ebd 93ce b4bc 3dad ef3d 2a17 a33d
00000190: 8cd9 4d3d ba54 a83d dab5 f73d fce4 053e
000001a0: 26a3 13be f254 44bd 7e3e 96bd 32a7 513d
000001b0: 5128 14be 4c5f c53d 2789 9e3c 1d63 8d3e
000001c0: d3c6 0b3e 06f6 003d 570a 183e 18e1 77bd
000001d0: 1104 703d c4cf 85be afd1 31bd c29c f73d
000001e0: 6720 00be 9157 b9bd 215c f7bd 7c19 433d
000001f0: 39c5 63bc 21d6 ab3c 3acd d3bd b02c 0f3d
00000200: f13b 2e3d baf1 153d 80d1 f5bb 175a 34bc
00000210: 64dc 2bbd 13e0 04be 8587 1abe f4d3 283c
00000220: f12f 0abd 96f3 e23d b8cf 06be 3891 0cbe
00000230: 1c57 b0bc ed49 c1bd 0f01 a03d 28b9 11be
00000240: 4a87 a23d a261 babb f37b 01be 74d9 603e
00000250: 5efe cf3d f0e5 b93d 5d96 fe3d eb8c 013d
00000260: 27fb f53c d5c5 78bd 7b3b 4f3c 6776 83bd
00000270: 982c 03be b92d 283c cbcb f139 e1f1 e03d
00000280: 3cde ebbb a5eb c6bc 23ea 143d c3a5 98bd
00000290: 16f6 f9bd 9ab3 55bc 010c 03be cfb0 3bbd
000002a0: 7525 a9bd ca74 123d d94c 4b3d 4fb1 073e
000002b0: 51d4 a5bd 7519 7b3c d1d9 ce3d 6f57 43bb
000002c0: 760c 7b3b cfdb 9ebc bfbf 40be 1e8f 3bbd
000002d0: ff0b ccbd 4eca a23d 59ea 9d3d 8b85 26bc
000002e0: c0ff 643d 3ebc 973c 8143 08be aed4 a83d
000002f0: a9a0 24bd 1b55 633a 9317 983c 32eb 85bd
00000300: c858 b0bc 52db 6c3c 7ec5 7e3d 1065 10bc
00000310: 18c1 b53d b7c6 b0bd 366d 75bd 08cb 483d
00000320: a691 85ba 2336 bdbd 494c 5c3c 366a f2bd
00000330: 5df6 fc3c 0e58 043d 127d dabd f15e a43d
00000340: 3b0c a0bd 17e2 b23c 7c85 74bd e374 4a3b
00000350: d3a1 b7bd 111a 0d3e 7a1f 713d dd07 093c
00000360: b31d e43c e11a 173e 079b 843c 50af 623e
00000370: dfe5 9f3d b788 103d 46b7 843d 9ca2 f03c
00000380: 93f8 adbe 0a15 1f3d 03b3 013d 0eab 963d
00000390: 7844 16bc 3fcd 913d 1e67 3bbd c46d c5bd
000003a0: 7f43 5b3d 4e4d 863d 37ec c0bd d5d6 c23d
000003b0: 67f6 84bd 447b da3c fec4 cb3b 6405 cabe
000003c0: b6f0 973d d891 0cbd f42f a73d ee8f 35bc
000003d0: e64d d33d ff5a 00be b6f6 c9bd c113 c23d
000003e0: 34db f83d d9a4 28bc 9aa0 d5bd 4672 2c3d
000003f0: a35f 6bbd 45d4 0d3d bfc7 85bd cf20 9c3d
0.0952901 -0.043222494 -0.048972603 0.08092708 -0.008485626 -0.024521634 -0.02241981 0.0116581945
-0.06610065 -0.062699296 -0.048365153 -0.15579624 0.18942212 0.16496424 -0.045822285 -0.13676181
-0.030027458 -0.05610296 0.011184982 -0.16579275 0.0745071 0.12015557 -0.010920612 -0.052390903
0.18942875 0.0850393 -0.10048683 -0.02152077 -0.035134286 0.11077582 0.10953853 -0.025593834
0.026912767 0.017267738 -0.020113114 -0.033574697 -0.025761621 0.13290556 0.19067767 -0.052306775
-0.03501387 -0.059860434 0.059416275 -0.03324067 0.015784552 -0.027639156 0.091193646 -0.03416696
0.06673569 0.0037753747 -0.120485514 -0.046437427 -0.12944366 -0.002355042 -0.049553555 0.053129137
0.062663816 -0.08866524 -0.05707531 -0.032029543 0.3093089 -0.010856015 -0.024225518 -0.10054903
0.029006092 0.05600821 0.019384544 0.29800588 0.09293534 -0.08098416 -0.08164828 0.08795887
-0.049617965 -0.085444644 -0.02110739 -0.037572037 -0.07180445 -0.14850844 -0.0457846 0.11053177
-0.14704598 0.10938077 -0.056663435 -0.07878319 -0.038286578 0.02699805 -0.08352282 0.06906749
0.015080604 0.08787291 -0.12469585 -0.24939944 0.03412878 0.2027278 0.10715011 0.08566277
-0.07741997 -0.022071159 0.117029645 0.079634026 0.050256297 0.08219285 0.12095232 0.13075632
-0.14417705 -0.047932573 -0.07336138 0.05118484 -0.14468504 0.09637317 0.019352509 0.2761468
0.13650064 0.031484626 0.14847694 -0.0605174 0.058597628 -0.26135075 -0.04341286 0.12090446
-0.1251236 -0.09049905 -0.12078119 0.047631726 -0.013902002 0.020976128 -0.10341878 0.034954727
0.042537633 0.03660748 -0.007501781 -0.011007807 -0.041958228 -0.12976103 -0.15090759 0.01030444
-0.033737127 0.110816166 -0.13165176 -0.13727272 -0.021525912 -0.09437928 0.07812702 -0.14230788
0.079359606 -0.0056879083 -0.12644939 0.21957952 0.101559386 0.0907706 0.12431023 0.03162853
0.030026985 -0.060735542 0.012648459 -0.06419068 -0.1280998 0.010264807 0.0004611894 0.10983635
-0.0071981233 -0.024282286 0.036356103 -0.074534915 -0.1220514 -0.013043309 -0.12797548 -0.045822915
-0.082590975 0.03575591 0.049633835 0.13251232 -0.08097137 0.015325894 0.10100139 -0.0029806753
0.0038306988 -0.019391922 -0.18823145 -0.045790784 -0.099632256 0.07948743 0.07710714 -0.010163675
0.055907965 0.018522378 -0.13307 0.082436904 -0.04019228 0.00086720445 0.018565929 -0.065390006
-0.02152671 0.014456587 0.062200062 -0.008813158 0.0887472 -0.08631652 -0.059918605 0.04902175
-0.0010190501 -0.092388414 0.013445922 -0.118366644 0.030879194 0.032310538 -0.106683865 0.08025921
-0.07814833 0.021836324 -0.059697613 0.0030892424 -0.089664124 0.13779475 0.05886791 0.008363691
0.027846193 0.14756347 0.016187204 0.22137189 0.07807516 0.03528663 0.06480269 0.029374413
-0.3397871 0.038838424 0.03166486 0.07356845 -0.009171598 0.07119226 -0.045752637 -0.09640077
0.053531166 0.065577134 -0.094200544 0.09513632 -0.0649231 0.026670106 0.0062185517 -0.39457238
0.07418959 -0.034318775 0.08163443 -0.011081679 0.10317592 -0.12534712 -0.098615095 0.09476424
0.12151185 -0.010293209 -0.10431023 0.042101167 -0.057464253 0.034626264 -0.06532239 0.07623445

fc.bias f4 [89]
00000000: 00c8 9e3d 519e 463d 0932 d73d 6d5f 0a3d
00000010: d151 713d a8db 05bc 07bf c93d 86d4 453d
00000020: 5991 4f3c 8c6e e3b9 b5b8 913d 255c d13d
00000030: 4390 07be 8d06 05be e1e3 16be 72db 09be
00000040: 0bce cdbd 667e 1bbe 47b4 2cbe dedb d4bd
00000050: a667 21be b9cc febd ee05 04be 3afc 0dbe
00000060: b25d ddbd 9953 fabd 6f6a 29be d9cd 06be
00000070: a066 26be 4fa2 28be e0c1 28be 4e57 e6bd
00000080: 1319 92bd 0f50 d0bd 8795 a0bd 99b0 71bd
00000090: c591 aebd 14c9 10bd 784a 91bd 296f 2abc
000000a0: 7b53 32bd b620 a9bd be19 0dbd 48b9 113d
000000b0: d1d3 443c dd1d c5bb cc98 a0bd 4d45 97bd
000000c0: 0912 853c 8257 7c3c 728a e9bc 571f 3cbd
000000d0: 018c 8bbd 733d 1d3d 530c d8bd 11ec adbd
000000e0: 4607 f4bd a94c 8abd 3a70 fabd b325 c4bd
000000f0: 2b8b 1a3e 7680 28be 9fa4 06be 5ff7 c5bd
00000100: cba2 d3bd 0bcc 16be c1f0 3fbe 841c 17be
00000110: b294 10be 1fd4 09be cae2 21be 3d06 02be
00000120: dff4 28be b061 f9bd cc7b 3fbe 1720 ffbd
00000130: b505 fbbd 8812 dfbd 6152 39be 9c77 06be
00000140: e201 e4bd 0f01 2fbe 4d2b 02be ac88 debd
00000150: a235 2cbe e9e4 3cbe 0001 d2bd b943 babd
00000160: 44e6 40be
0.07752991 0.048490826 0.1050759 0.03378241 0.058915917 -0.008170046 0.09850889 0.04829838
0.012668931 -0.00043379178 0.07115308 0.10222653 -0.13238625 -0.1299078 -0.14735366 -0.13462618
-0.10049065 -0.15184936 -0.16865645 -0.10393499 -0.15762195 -0.124413915 -0.12892887 -0.13865748
-0.108088866 -0.12222976 -0.16544507 -0.13164462 -0.16250086 -0.16468166 -0.16480207 -0.11247121
-0.07133689 -0.1017152 -0.0784102 -0.059006307 -0.08523897 -0.035348013 -0.07094282 -0.010402479
-0.043536644 -0.08258192 -0.034448378 0.03557709 0.012013392 -0.006015523 -0.07841644 -0.07386265
0.016243951 0.015401723 -0.028508399 -0.045928326 -0.06813813 0.03838868 -0.10549226 -0.08492292
-0.1191545 -0.06752903 -0.12228437 -0.09577503 0.15092151 -0.16455254 -0.13148735 -0.09666323
-0.10333785 -0.14726274 -0.18744184 -0.14756972 -0.14119223 -0.13459824 -0.1580917 -0.12697692
-0.16499661 -0.121768355 -0.18699569 -0.124572925 -0.12256948 -0.108922064 -0.18097831 -0.13131565
-0.111331716 -0.17090248 -0.1271183 -0.10865912 -0.16817334 -0.18446697 -0.10254097 -0.09094948
-0.1883784
