src/models/bebop/pretrained/generator.pt (torch_old, 467324 bytes, 7 tensors)

embedder.weight f4 [89, 64]
000000 46 21 c8 be a6 6f 8e 3e 4e 84 1a 3e f0 a3 53 3e
       -0.39087886 0.27819556 0.15089533 0.20668006
000010 81 38 46 3e f0 dc 4d 3e 1e 50 e0 be 81 44 b4 3e
       0.19357492 0.20103812 -0.43811125 0.35208514
000020 9d eb 94 3e 5b 88 a9 3e 44 91 b1 3e cf ce d6 3e
       0.2908601 0.33111843 0.3468114 0.41954657
000030 2b 6f 1a 3e a6 7b 10 bd a9 bd a0 be 42 d7 dc be
       0.1508147 -0.03527417 -0.313947 -0.4313298
000040 43 84 c7 3e 16 ec f3 3d f2 06 d5 be ee e4 b7 be
       0.38968095 0.11910264 -0.4160686 -0.35916847
000050 12 05 9e 3e 90 a4 9a be 57 3e a1 be 95 a9 d5 be
       0.30863243 -0.30203676 -0.31492874 -0.41730943
000060 4f ef 30 3e 0d f6 96 be e1 1c b7 be 50 af a4 be
       0.17278789 -0.29484597 -0.3576422 -0.32165003
000070 17 bf ed 3e 9e f5 a5 3e f2 5f 3d be 22 70 c1 be
       0.46434852 0.32413954 -0.18493631 -0.37780863
000080 1a 71 3f be 71 bf 8e 3e 5f 6e 10 3e 69 6e 89 3e
       -0.18695489 0.27880433 0.14104603 0.2684205
000090 f1 b3 f6 3d 71 a1 c9 3e 9d ef 87 3c 1e b9 c1 3e
       0.1204604 0.39380983 0.016593749 0.37836546
0000a0 b2 15 9f be f4 6c a5 be ad 81 a3 be 51 22 e6 3d
       -0.3107124 -0.32309687 -0.31934872 0.11237014
0000b0 7c 50 98 3e 73 85 a3 3e 20 70 07 be 66 da 71 be
       0.29748905 0.3193775 -0.13226366 -0.23618469
0000c0 c9 fe 77 be e4 b5 37 3e 18 6d 4d be 7b 42 79 bb
       -0.24218287 0.1794048 -0.20061147 -0.003803401
0000d0 e4 6b cd be 03 d2 97 be 65 3d 8d bd 10 7c 0c 3e
       -0.40121377 -0.29652414 -0.06896476 0.13719201
0000e0 73 54 36 3e 14 c4 29 3e 06 c2 89 be 06 b1 b9 3e
       0.17805652 0.16578704 -0.2690584 0.3626787
0000f0 ca 8f 19 3e 8b d2 17 be c4 60 6b be c0 8e d3 3e
       0.14996257 -0.1482641 -0.22986132 0.41319847
000100 4a 8c e5 3c 24 5d 8a bc 51 b0 45 3d 00 ce 30 bb
       0.028020997 -0.016890116 0.04826385 -0.0026978254
000110 80 98 54 bc 5d 70 29 bd 88 7a 11 bc 50 a0 e4 3b
       -0.012975812 -0.041366924 -0.008879311 0.0069771186
000120 94 80 93 bc 09 23 2e 3d 67 9e 47 3d 24 90 80 bc
       -0.018005647 0.04251388 0.04873505 -0.015693732
000130 68 e2 82 3b 0a e5 9f 3c a0 fa f7 bc 38 5b 0c 3c
       0.003994275 0.019518394 -0.030270875 0.00856667
000140 e2 82 b6 3c 40 10 85 3a 1b bf 00 3d 35 b0 2c 3d
       0.022279207 0.0010151938 0.031432252 0.04216023
000150 20 a5 06 bb 8a 4a 18 bd fc 36 82 bc 60 7d 45 3c
       -0.00205452 -0.03718046 -0.01589536 0.0120538175
000160 72 42 9a 3c 72 cf 3c bd 3b d2 1b bd 5a 21 b6 3c
       0.018830512 -0.046096273 -0.03804229 0.0222327
000170 e0 23 9f bc a1 18 28 3d 70 46 ba bc be ec e9 3c
       -0.019426286 0.041039113 -0.022738665 0.02855527
000180 8e 71 16 bd f2 d5 f6 3c 20 2e 55 bb e5 5d 3e 3d
       -0.036729388 0.030131314 -0.0032528713 0.046476264
000190 03 36 12 bd 80 66 fc bc 10 3d 26 bd e2 14 c9 3c
       -0.03569604 -0.030810595 -0.040585577 0.02454609
0001a0 dd a9 3a 3d 9a cc a5 3c 0a 26 e2 bc 58 81 08 bc
       0.04557215 0.020239163 -0.027606029 -0.008331619
0001b0 2c 1c 27 3c 9b 86 2f 3d 60 cb 7e bc 5d 81 34 3d
       0.010199588 0.04285298 -0.015551418 0.044068683
0001c0 17 c7 27 3d 50 07 3f 3b d3 01 b6 bc c5 64 21 bd
       0.04096135 0.0029148646 -0.022217667 -0.039402742
0001d0 e3 bd 2a 3d 6b 65 2b bd c0 03 b4 bb 33 94 26 bd
       0.041684996 -0.041844767 -0.005493611 -0.040668678
0001e0 ed f3 2a bd f0 37 ca 3b ac 96 71 bc ce d5 f2 3c
       -0.041736532 0.006171219 -0.014745396 0.029642966
0001f0 91 31 1c 3d a8 ea f2 3b d9 25 39 3d 59 b7 03 3d
       0.038133208 0.007413227 0.04520211 0.032157276
000200 16 28 89 3c 91 3b 41 3d fd ed cc bc 2d 7a 0b 3d
       0.016742747 0.047175948 -0.025015825 0.034052063
000210 c0 02 15 bc 05 f0 0f 3d 88 ab 3e bd 03 60 48 3d
       -0.009094894 0.03514101 -0.046550304 0.04891969
000220 53 4c 44 3d 91 91 36 3d ba 44 ed bc 22 47 0c bd
       0.04792435 0.044572417 -0.028963435 -0.034247525
000230 18 1a 6a bc f8 ae 43 3c 26 8b c5 3c e7 2a 13 3d
       -0.014288448 0.011943571 0.024114203 0.035929587
000240 74 3a 2a 3c 00 7e 0f 39 2c 67 1a 3c f0 27 f8 bb
       0.010389913 0.00013684481 0.009424012 -0.0075731203
000250 d1 e2 40 3d 03 f0 a0 bc 38 da 0e 3c c9 b9 40 3d
       0.04709131 -0.019645697 0.00871902 0.04705218
000260 32 e8 8e 3c 53 6f f6 bc 77 fb 2c bd c0 88 5d ba
       0.017444704 -0.03008238 -0.042232003 -0.00084508583
000270 82 f5 ad 3c be da dc 3c 18 76 35 3c 36 de 87 3c
       0.021235231 0.026959773 0.011075519 0.01658545
000280 c0 cc 67 3a 05 5d 44 3d 4a 1e 9e 3c 00 28 8d ba
       0.0008842461 0.047940273 0.019301552 -0.0010769367
000290 48 28 4c 3c 92 38 ba 3c 15 55 04 3d 50 47 d2 3b
       0.012460776 0.022732053 0.032307703 0.0064171925
0002a0 23 74 40 bd 79 12 2f 3d 60 89 f9 3a ee 64 86 3c
       -0.046985757 0.042742226 0.0019038133 0.016405549
0002b0 b8 40 49 bc 0c d3 52 bc 30 44 bc bc 48 f8 4b 3c
       -0.012283497 -0.0128677 -0.022981733 0.012449332
0002c0 70 35 28 bd 04 db 69 3c 33 f7 00 3d c4 cb 83 bc
       -0.041066587 0.014273409 0.031485748 -0.016088374
0002d0 bd 22 a2 bc 08 bd 33 bc 03 e3 0a 3d 1a 55 3e bd
       -0.019791955 -0.0109703615 0.0339079 -0.046467878
0002e0 13 a3 9c bc 2a 5a 9c 3c d1 f3 31 3d 86 1c ff 3c
       -0.019120729 0.019085962 0.043445412 0.03114153
0002f0 4c 36 93 bc 62 57 ec 3c 39 da 0a 3d c9 10 4b 3d
       -0.017970227 0.028850261 0.03389952 0.049576554
000300 d8 f4 da 3b f6 29 a3 3c 60 0f 56 bb a1 c9 16 3d
       0.0066820197 0.01991747 -0.0032662973 0.036813382
000310 8d 24 08 bd 2c 75 1b bc 90 77 d5 3b c0 cf 99 3a
       -0.033237983 -0.009488385 0.006514497 0.0011734888
000320 80 c1 2e ba e0 84 4b bc 33 e1 ff bc 32 d0 3f bd
       -0.0006666407 -0.012421817 -0.031235313 -0.04682941
000330 80 bc c2 bc dd 69 1d bd 82 38 bf 3c 48 02 38 bc
       -0.023771524 -0.038431037 0.023342375 -0.011231013
000340 b0 6f de bc e0 34 94 bc dd 0c e9 bc c2 a7 0d bd
       -0.027152866 -0.018091619 -0.028448517 -0.034583814
000350 66 f6 88 3c a0 75 45 3c 40 ef f9 3a 7d a2 26 3d
       0.016719054 0.01205197 0.0019068494 0.040682305
000360 d8 95 98 3b 10 8c 8c bc 16 93 8c 3c 76 4b 28 bd
       0.0046565346 -0.01715663 0.01715998 -0.04108759
000370 e1 ad 1b 3d d1 be 26 3d cb 9e 09 3d 2e d1 dd 3c
       0.03800762 0.04070932 0.033598702 0.027077284
000380 8d e7 30 3d 2d f4 47 bd d1 0d 25 3d 2e a6 b5 3c
       0.043189574 -0.04881685 0.04029638 0.022173967
000390 31 98 2f 3d 08 c6 05 bd 8f c6 27 3d 0c 74 05 3c
       0.04286975 -0.03265956 0.040960845 0.0081453435
0003a0 fc b5 86 bc 11 a1 1a 3d 00 c3 04 3b ae 5b bf 3c
       -0.016444199 0.03775126 0.002025783 0.023359146
0003b0 50 d3 f0 bc de e6 ad 3c 6e e8 f0 3c e2 fa b3 3c
       -0.029397637 0.02122825 0.029407706 0.021970216
0003c0 dd 01 ed bc 33 9b 9d bc 8c fc 35 bc 4b bb 25 3d
       -0.028931553 -0.019239044 -0.011107575 0.04046182
0003d0 37 3c b4 bc 40 3b 0f bd ba ef df bc 20 4b 5f 3b
       -0.022001369 -0.034968615 -0.02733599 0.0034071878
0003e0 73 e9 41 bd 3d af 2b bd af 9a 37 bd 89 34 06 3d
       -0.047341775 -0.041915167 -0.044825252 0.032764945
0003f0 4f fb 48 3d 28 fd 4b bc 40 4c ae 3a e0 52 40 bb
       0.04906779 -0.012450494 0.0013297871 -0.0029346272

lstm.weight_ih_l0 f4 [512, 64]
000000 d5 d4 87 3c fe 3b c5 bb 7d 93 43 be f4 d5 e6 3e
       0.016580978 -0.0060191145 -0.19099231 0.45085108
000010 16 b5 01 3e d6 39 3d be da 0a 11 3f 84 cf 80 3d
       0.12666735 -0.18479094 0.56657183 0.062895805
000020 e2 5e b4 3d 46 37 c4 bd 18 7a 9f 3d b2 87 27 3e
       0.0880716 -0.09580855 0.077869594 0.16360357
000030 26 dd 8a 3d ed 82 d0 3c ec 90 c0 3c 23 9f 27 3f
       0.06780462 0.025453055 0.023506604 0.654772
000040 30 bb 63 3e 65 cf b0 bd 80 0f 5a 3e ca e8 b3 be
       0.22239375 -0.08633307 0.21294975 -0.3513854
000050 40 88 03 3e a9 3c cd 3d 41 40 76 bd 8a 72 b2 3d
       0.12844944 0.10021336 -0.06011987 0.08713253
000060 d1 8f d2 3d e7 5d d8 bc 54 89 66 bd a8 a1 d3 bd
       0.10281337 -0.026411964 -0.05628331 -0.10333568
000070 16 1d 0d bf 4b f3 3d be 77 93 7e 3c a6 f6 0b 3c
       -0.55122507 -0.1854984 0.015538088 0.008542692
000080 77 69 f6 bd ec ed 01 be eb b9 24 3e 24 bd bc bd
       -0.120318346 -0.12688416 0.16086547 -0.09215763
000090 e6 13 78 3d 80 7e a4 3e fc 2d f8 bc eb eb 26 be
       0.06056585 0.32127762 -0.030295365 -0.16300933
0000a0 4e be 68 be f8 be 03 3e 25 4b b9 3d 92 2e b0 bd
       -0.22728845 0.12865818 0.09047536 -0.086026326
0000b0 a9 14 94 3d d2 7a 14 bd 67 c1 63 3e de 1e 92 3e
       0.07230503 -0.036249943 0.22241746 0.28539175
0000c0 ec 0a 2b be 5e 6e 03 be 04 4d 65 bf d0 da 25 3d
       -0.16703385 -0.1283507 -0.8957064 0.04049188
0000d0 8d 6a 0d 3e 55 31 b8 be d2 52 fc 3c 19 fa 7c 3d
       0.13810177 -0.35975137 0.03080121 0.06176195
0000e0 dc f5 50 bc 59 16 fa 3d 55 f8 6f bd 77 c7 9a 3d
       -0.01275393 0.12211294 -0.058586437 0.07557576
0000f0 15 86 67 3d 44 c7 29 3d ec b4 24 be 3d fa 1e 3f
       0.056524355 0.0414498 -0.16084641 0.62100583
000100 ce 7a 9d 3b f7 39 1d bd 49 94 10 be 3b ec 7b bf
       0.004805899 -0.038385358 -0.14119066 -0.98407334
000110 bf 96 b0 bd 0b 11 30 be 24 21 4d be b7 7f e7 3d
       -0.086225025 -0.17194001 -0.20032173 0.113036565
000120 63 92 4b bd e4 bd 66 be e8 25 99 bc 0f ff 06 3c
       -0.049700152 -0.22533375 -0.018694833 0.008239522
000130 b3 fb 2c 3d 50 bd c5 3d 91 f3 a0 3d 96 89 8b 3e
       0.042232227 0.09655249 0.078589566 0.27253407
000140 3c 1d 8c bc cc e4 14 bd a6 88 4f 3e 7c 55 3f 3f
       -0.017103784 -0.03635101 0.20266971 0.74739814
000150 a4 34 e2 3c 03 2d b9 3d ed 66 03 be 7f 01 ab be
       0.027612992 0.090417884 -0.12832232 -0.3339958
000160 b0 5d 06 3d f2 c0 66 bd 72 fa e1 bd c9 65 97 bc
       0.03280419 -0.05633635 -0.11034097 -0.018481152
000170 ef 44 a2 3d 24 d3 f1 bc 5f d6 ce 3d d0 40 50 3d
       0.07923304 -0.029519625 0.10099482 0.05084306
000180 c2 c8 a7 3a b7 96 87 bd d7 c1 3a 3d 04 f9 26 be
       0.0012800919 -0.066205435 0.045595016 -0.1630593
000190 d5 61 89 3d a4 5e 9c bc 8b 9b ac bd 6f 46 41 be
       0.06708113 -0.019088097 -0.08428105 -0.18874525
0001a0 dc 1c 57 bd 50 37 31 3e 53 46 8b 3d 6b 6c 34 3d
       -0.052517757 0.17306256 0.06800523 0.044048708
0001b0 3e 95 a6 3d 27 a4 2d be 0c f9 3d 3e e7 7b 00 3c
       0.081339344 -0.1695715 0.18552035 0.007842041
0001c0 64 65 aa 3e ed 6c 89 bd fc e4 a0 3d 7c 9a ac 3d
       0.3328048 -0.06710229 0.07856175 0.08427903
0001d0 8d 1c db bd d0 de 68 3f b8 23 e6 3d 4f 61 9b 3d
       -0.10698805 0.90964985 0.112372816 0.075869195
0001e0 8b 02 eb 3d a7 fc b2 3c 11 c1 bc bd 78 a8 8c 3d
       0.114750944 0.02184899 -0.09216512 0.0686807
0001f0 1e cf 14 3d d9 7d a2 3d 72 09 c9 bc 30 27 33 bf
       0.036330335 0.0793416 -0.024540637 -0.6998167
000200 1e c7 3c be 6e 0e a5 be e2 6b b1 3e 0d 87 96 3e
       -0.18435332 -0.3223757 0.3465262 0.2939991
000210 04 31 93 3e 28 9f a7 bd b8 0f 0f 3e 8f 20 b3 be
       0.28748333 -0.081846535 0.1397084 -0.34985778
000220 ac 06 08 bf da fd ad be 6c 68 a9 be b2 f5 e2 be
       -0.5313518 -0.33982736 -0.3308748 -0.44328076
000230 38 8d 00 bd 6d 00 9a bb 81 8d 27 3e 07 ee 2b be
       -0.031384677 -0.004699758 0.16362573 -0.16790019
000240 19 84 00 bf e9 61 5e be f7 61 14 3e 17 46 bc bd
       -0.50201565 -0.21717037 0.14490496 -0.09193056
000250 cc e6 ef bd ef 7a 06 3e 0b e4 b5 3e be 96 ae 3e
       -0.11713943 0.13132833 0.35525545 0.34099382
000260 7c b1 18 be 9a b4 8c 3e 93 ee 01 3f 9e bd 62 3e
       -0.14911455 0.27481538 0.5075466 0.22142646
000270 d4 ff 86 3e 66 2b d3 3d 9a 2d 3e 3e ad c0 8a bd
       0.26367056 0.10311012 0.18572083 -0.06775031
000280 75 6b 11 3d 52 01 44 3d cc 7a ad ba bd 41 cb be
       0.03550287 0.04785282 -0.0013235449 -0.39698592
000290 a3 3b fb bd 62 8e e5 be fb c5 1a bd 9e fc 0b bf
       -0.12267234 -0.44835192 -0.037786465 -0.5468234
0002a0 7b 4d c8 3e 8d 8d 8e 3e 6e 49 99 3e 07 6d 3c 3e
       0.39121613 0.2784237 0.29938835 0.18400966
0002b0 aa 9c db be b1 e6 35 be 86 6c 61 3e 5d 2a dc be
       -0.42892963 -0.17763783 0.22014055 -0.4300107
0002c0 28 b6 23 3f 62 4e bf 3e be de 7f 3d 14 17 bb 3d
       0.63949823 0.3736449 0.062468283 0.09135261
0002d0 ff cc a6 bd cc a8 59 be fa 73 30 bd 5e 52 71 bc
       -0.08144569 -0.21255797 -0.043079354 -0.0147291105
0002e0 a2 44 84 3d f0 c7 b7 3d b8 e9 c6 3e d7 62 09 be
       0.06458403 0.08973682 0.38850188 -0.1341661
0002f0 54 fd 93 be 89 32 83 3e 93 a4 3f 3e 00 36 07 bf
       -0.28904212 0.25624493 0.18715124 -0.5281677
000300 ae b0 8b be 0e 51 e5 3d 01 7b 8a bd a5 f9 ce be
       -0.27283233 0.111971006 -0.067617424 -0.4042484
000310 c9 1b 93 bc 69 bc 2e be 20 ca 7b be 44 94 1f 3e
       -0.017957585 -0.1706406 -0.24588823 0.15583903
000320 1f 01 13 3e ff ed 46 be 09 ad 71 bd 1a e6 25 3e
       0.14355896 -0.19426726 -0.05900291 0.16201058
000330 6a 2c 08 3e bd d9 f3 3d 3d a0 8f 3e 37 85 86 be
       0.13298193 0.11906765 0.2805194 -0.2627351
000340 49 b0 72 3f a3 40 c8 bd fa c2 3b 3b f4 39 c7 3d
       0.9480024 -0.097779535 0.002865015 0.097278506
000350 ef fa 05 3e 5b 18 ac 3d 41 a4 1a be 5c 77 d5 be
       0.13084005 0.08403083 -0.1510172 -0.41692626
000360 a3 69 c4 3d 92 5d ef bd 0c 0c 38 be d0 4f 05 be
       0.09590461 -0.11687769 -0.17973346 -0.13018727
000370 0d c7 1a 3f 25 bd 22 3f 1a 9e f7 3d 89 d9 11 3d
       0.6045998 0.6356986 0.12090702 0.03560785
000380 4d cf 22 be f8 b6 20 bf bc 61 35 3d 6f 2d d0 bd
       -0.15899391 -0.6277919 0.04428266 -0.10164916
000390 4c 1e a3 3d b6 2c 70 3d 10 a2 33 bd 6d 0e 29 be
       0.07964763 0.05863639 -0.043855727 -0.16509409
0003a0 ec ab 63 be 40 1a b0 3d 49 31 40 be ff c8 7a 3b
       -0.22233552 0.08598757 -0.18768801 0.0038266776
0003b0 e3 0b cf 3d 46 72 c9 3d bc 5f 3e 3e ce bb e1 be
       0.10109689 0.09836249 0.18591207 -0.44088596
0003c0 6f cb 5c 3f 1b 92 67 3e 27 7c 26 be a5 30 86 bc
       0.86247915 0.22614329 -0.16258298 -0.016380617
0003d0 d9 b6 8c be 5f 20 f1 3e 36 9c 24 3e ba 62 cc 3d
       -0.27483252 0.4709501 0.16075215 0.09979768
0003e0 85 f3 28 3e 43 93 0e bd de e0 55 bd 39 35 5e 3e
       0.16499145 -0.03480841 -0.052216403 0.2169999
0003f0 50 85 f7 bb c3 32 8b 3d 5f c4 30 be 5a 1a 89 be
       -0.007553734 0.067967914 -0.1726241 -0.26777917

lstm.weight_hh_l0 f4 [512, 128]
000000 f6 48 36 3d 07 ea 80 3d 33 2c 3c 3d d8 d0 d4 3c
       0.044503175 0.06294637 0.04594059 0.02597849
000010 1d e7 49 bd 9a f6 d0 bb 6c e8 2f 3c d1 9e 17 3e
       -0.049292672 -0.0063770534 0.010736566 0.14806677
000020 43 e9 ab 3c a0 a4 c9 bc b9 81 4d bd 53 50 e2 bb
       0.020985251 -0.024614632 -0.05017254 -0.006906548
000030 b4 5b cb 3c 95 a8 d2 3b d5 1e 86 bc 1e f1 c1 3c
       0.024824 0.006428788 -0.016372124 0.023674544
000040 9b c5 a0 3c c0 0e 89 3d f6 d2 1e bd ca 7f 9b 3c
       0.019625476 0.066922665 -0.038775407 0.018981833
000050 41 46 53 3c a8 7a 99 bc fe d9 89 3c fe ce 3f bc
       0.012895168 -0.018735245 0.01682758 -0.011707066
000060 cf 03 09 bd eb b1 7b bd 11 b8 13 3d ee 07 77 bd
       -0.033450898 -0.061448973 0.03606421 -0.060310297
000070 ff 93 67 bc 30 e0 8e 3d ab 84 c0 3d f7 f0 67 bd
       -0.014134406 0.06976354 0.094003044 -0.056626286
000080 2b 58 8f bc 90 ec aa bb e5 2b 7d 3d 1e 63 6d 3d
       -0.017498096 -0.0052161887 0.06180944 0.057955854
000090 f8 b4 76 3c ce 74 3c 3d 81 dd e2 3d fc 43 23 bb
       0.015057795 0.04600983 0.11077405 -0.0024912348
0000a0 9b 44 a6 bd 37 d3 8e bd 9d fc 5a 3c b2 4e c0 bc
       -0.08118554 -0.0697388 0.013365892 -0.023475025
0000b0 d4 a5 ab bb b4 25 bc 3c 79 88 8f 3d 5a ee 42 3d
       -0.005238274 0.022967197 0.07008452 0.04759059
0000c0 e9 dc bb bc 69 6d f1 bb 99 6e 08 3d 98 fc d8 3c
       -0.022932487 -0.007367779 0.0333086 0.026487634
0000d0 2c 10 b7 bd 23 5e f4 bd 3e 63 b0 3c b3 78 77 3c
       -0.089386314 -0.11932018 0.021531697 0.0151044605
0000e0 1c 06 35 3d 55 27 3f 3d de c3 a2 3c aa d3 04 3d
       0.04419528 0.04666837 0.019868787 0.03242842
0000f0 d5 3d 4e 3d 43 7e 3a 3d 05 0b 7f 3d 6d 77 0b bc
       0.050351936 0.04553057 0.06226637 -0.00851236
000100 ef c2 05 bc b4 3b 44 3d c6 fd 90 3d 2e c6 07 bd
       -0.008164152 0.0479085 0.070796534 -0.033147983
000110 fe b2 75 3d 7c 44 ed bc 55 c1 21 bb 00 83 e4 3c
       0.059985153 -0.02896332 -0.0024681885 0.027894497
000120 ae dc 96 bd e7 57 55 bd e0 59 95 bd 47 11 8b bc
       -0.0736631 -0.052085783 -0.07292533 -0.016976012
000130 61 68 96 bd 9b d1 80 3d 6e e7 38 3d 78 c1 06 3d
       -0.073441274 0.06289979 0.045142584 0.03289935
000140 e3 2d 81 3d 9f 9e b1 3c a2 fd 04 bb 74 d4 02 bd
       0.0630758 0.021682082 -0.0020292778 -0.031940892
000150 c9 93 7a 3d 50 c7 2a bd 1d 6f d8 3c d2 5b 1c 3b
       0.061176095 -0.041693985 0.02642017 0.002385844
000160 a8 c7 1e 3c b8 f6 32 3d 3f 7a 85 3c 9b 13 47 bd
       0.009691156 0.04369232 0.016293643 -0.04860268
000170 1c a4 2d bc 61 37 82 bd f5 80 6f 3d 1d 1e 14 3b
       -0.010598209 -0.06358219 0.058472592 0.0022600957
000180 71 d1 a7 bc 28 cc 6d 3d f5 a6 8d 3c b5 98 7b 3d
       -0.020485612 0.058056027 0.017291525 0.06142493
000190 d1 5c e5 bc b0 9c c0 bc d8 e0 ce 3c 32 9e da 3c
       -0.02799836 -0.023512214 0.025253698 0.026686762
0001a0 a7 ad 99 3d 29 6d 85 3c 74 c0 1b bc 0d 2d ae bb
       0.07503825 0.016287403 -0.009506334 -0.005315429
0001b0 93 68 0e 3c e5 80 1a bd d8 f5 a6 3c b9 92 0e bd
       0.008691925 -0.03772058 0.0203809 -0.034807894
0001c0 8c c4 00 bc ac ad 51 bc 65 80 68 3d 20 25 0b 3d
       -0.00785936 -0.012797754 0.05676307 0.033970952
0001d0 75 d8 00 bc 37 d8 91 3d 0d 04 15 3d f1 db 42 3d
       -0.007864107 0.07121318 0.036380816 0.047573034
0001e0 ee b6 fd 3c ec 44 76 bc bd 20 36 bd 28 29 81 3c
       0.030971017 -0.015031081 -0.044464815 0.015766695
0001f0 14 2c 6f ba d1 9e 22 3d bb cc 9f 3b f5 e6 51 bb
       -0.00091236946 0.03970224 0.0048767007 -0.003202853
000200 57 a0 06 3c c1 8c 8a 3d 09 21 50 ba 1f c2 ce bc
       0.008216939 0.06765128 -0.0007939493 -0.025239049
000210 90 a5 d7 3a 47 31 fb bc b3 f0 2a bc b3 4a a5 3e
       0.001645254 -0.030663146 -0.010433364 0.32283553
000220 ac 78 03 3d 57 41 fa 3c 3b df 2c bd 8c 59 b6 3d
       0.032097504 0.030548735 -0.042205077 0.089037985
000230 c7 8d 5b bd 81 61 db 3c 11 31 61 b9 81 b0 80 3d
       -0.053602006 0.026779892 -0.00021475951 0.062836654
000240 03 f7 0a bc 21 ee 27 3d 44 67 18 bc e8 45 92 bb
       -0.008481744 0.04099858 -0.009301964 -0.0044639
000250 c9 9a d0 3c 19 41 90 3d 9e b0 d7 3c 21 fa 8a bc
       0.025464432 0.070436664 0.026329335 -0.016964974
000260 1a 21 f4 bc 96 3e 08 bd 94 64 9e bc cc b5 37 bd
       -0.02980094 -0.03326281 -0.019335069 -0.04485111
000270 0b 05 76 3d cf df 82 3d eb 8e 77 3e 7d ef 72 bd
       0.060063403 0.06390344 0.24175613 -0.059310425
000280 da 54 9f ba d3 1a 95 3c 61 40 98 3c 06 5f 81 3d
       -0.0012156025 0.018201267 0.018585386 0.063169524
000290 d9 d7 c4 bb 05 3e 86 3c 4d b0 d6 bd 3f aa 5c bd
       -0.0060071764 0.016386995 -0.104828455 -0.053873297
0002a0 d6 ec 48 bb 22 6f 68 be ad 8e 92 3d 46 19 5e 3d
       -0.0030658743 -0.22698644 0.071561195 0.05422332
0002b0 eb 51 25 bd e9 89 5d 3d 98 44 94 3d 43 b7 9c 3d
       -0.040361326 0.0540866 0.07239646 0.07652142
0002c0 c4 c4 e2 3c d1 a9 20 3c 97 b1 04 3d b1 83 95 bc
       0.027681716 0.009806112 0.032395925 -0.018251272
0002d0 a1 4d 4c be 63 69 4b bc dd f3 30 bd 0b b2 5c 3d
       -0.19951488 -0.012415263 -0.043201316 0.053880733
0002e0 25 76 05 3c cd a1 90 3c e0 67 b5 ba 4c 04 b4 3a
       0.008145844 0.017655278 -0.0013840161 0.0013734191
0002f0 74 9c 25 bb 44 25 b5 3c c2 d9 3b 3d a7 17 43 3d
       -0.0025270255 0.022112496 0.045861967 0.04762998
000300 e9 95 4d 3d ed 0f b8 3d c6 a8 0f bd 8e 94 16 bd
       0.050191794 0.089874126 -0.035073064 -0.036762767
000310 54 42 44 3d 1d 41 07 3d 3c 3c ab 3d f1 a3 11 3d
       0.047914818 0.03302108 0.08361098 0.035556737
000320 6c af 18 bd 15 5e 96 3b f7 71 73 bd 89 25 90 3c
       -0.03727667 0.004588852 -0.059434857 0.017596023
000330 ac 65 9a bd aa 27 44 3d 5d f5 51 3c f4 c0 35 bc
       -0.075389236 0.04788939 0.012814847 -0.011093367
000340 af 31 1d 3e 76 9e 5e 3c 2b 17 5a 3b 6c d4 91 3b
       0.15350984 0.013587585 0.003327797 0.0044503715
000350 0a 5e f3 3c f1 4c 8a bc 79 a0 60 3c a9 16 66 3d
       0.029707927 -0.016882392 0.013710135 0.056173954
000360 c7 fe 12 bd 7c 21 14 3d d6 73 87 3d 41 ee 25 bb
       -0.035887506 0.036164746 0.06613891 -0.0025319012
000370 86 97 06 bd 63 4d cd bc ae 02 83 bc 1b 57 27 3c
       -0.032859348 -0.025061315 -0.015992489 0.010213639
000380 2f 90 ca bc fb c4 9d bc 51 da 58 bd 2c c8 3a 3d
       -0.024726955 -0.019258967 -0.052942578 0.045601055
000390 18 24 05 bd 6e 73 c9 3c e6 4a c9 ba bf 21 b2 3c
       -0.032505125 0.024591174 -0.0015357404 0.021744607
0003a0 00 1b 93 bc 99 2e 17 bd fc 04 0c 3b 5a 84 0b bc
       -0.01795721 -0.036909673 0.0021365276 -0.008515442
0003b0 1c c6 93 3d fe e1 2f bc 4b 5e a1 bc 6e a8 8b bd
       0.07215521 -0.010735033 -0.019698283 -0.06819235
0003c0 4e 97 ac bb f5 23 92 3d 53 1f 07 3d 6d 13 99 bb
       -0.0052670604 0.071357645 0.032988857 -0.004671505
0003d0 d4 7b 11 3c 9a c2 a7 3c 7e 93 67 3d 02 6b 1e 3d
       0.008879621 0.020478535 0.056537144 0.03867627
0003e0 fb f8 43 bd 57 8e 64 3d cb 6a bd 3c dc ad ff bc
       -0.04784487 0.05579981 0.023122212 -0.031210832
0003f0 1c 9c d2 3d 88 bd 79 bb f0 33 96 3d 51 0b 74 3c
       0.10283682 -0.0038107354 0.07334125 0.014895276

lstm.bias_ih_l0 f4 [512]
000000 21 01 a4 3d 66 36 05 3d 9e 29 a1 3d 00 0d 6a 3d
       0.08008028 0.03252258 0.07869266 0.057141304
000010 0e 80 ec 3c e6 5e bd 3d 96 44 9e 3d 69 a5 63 3e
       0.028869655 0.09246616 0.077279255 0.22231068
000020 ad 45 4a 3c ad d3 e7 3c 75 f8 9e 3d 4c 64 8c 3d
       0.012345714 0.028299177 0.07762233 0.068550676
000030 76 52 57 3d f5 7d b0 3d 60 b0 bd 3d e4 d5 98 3b
       0.052568875 0.086177744 0.092621565 0.0046641696
000040 5c 99 8d 3d 68 e0 8e 3c 00 a2 67 3d 30 f7 45 3d
       0.069140166 0.01744099 0.05655098 0.04833144
000050 80 30 f2 3d 84 4a 3c 3d 0e 27 28 3d f6 49 0c 3d
       0.11825657 0.0459695 0.04105287 0.034250222
000060 18 7b 0e 3b 65 c2 ad 3d 53 00 15 3d ae fe b0 3d
       0.002174085 0.084843434 0.036377262 0.08642326
000070 53 01 9b 3d b0 8f 63 3d e2 0c ca 3e 83 c3 92 3d
       0.07568612 0.055556953 0.39462954 0.07166197
000080 c0 e3 36 3c 24 08 d8 3c b7 ea c8 3d fa 56 1c 3e
       0.011162698 0.02637107 0.09810393 0.15267554
000090 91 0f 72 3c e3 49 99 3c dc 44 8e 3e c9 3c 81 3d
       0.014774219 0.01871199 0.2778691 0.06310422
0000a0 97 01 79 3e 58 e7 70 3e bd be 0a 3d 26 05 c6 3d
       0.24317013 0.2352575 0.03387331 0.09668951
0000b0 00 42 6b 3c 62 3c 1b 3d 42 ce 9f 3d 2f f4 e7 3d
       0.014358997 0.037899382 0.078030124 0.11325871
0000c0 ec 01 74 3c a9 8a 0c 3e af 8e 8f 3d c8 83 e5 3c
       0.014893036 0.1372477 0.070096366 0.02801694
0000d0 b6 d1 42 3e fe 71 de 3e 4f 41 c2 3b 90 8f 9a 3d
       0.19025311 0.43446344 0.0059281955 0.075469136
0000e0 0a 82 a8 3d df db 8a 3d b9 b9 5b bb 8b 5c de 3c
       0.08227928 0.06780218 -0.0033527447 0.027143737
0000f0 e7 aa 2a 3e a9 e9 d2 3c ac 00 9c 3d 38 a1 a9 3c
       0.16666757 0.025746183 0.07617316 0.020706758
000100 2c 44 c1 b9 64 38 ed 3d 67 68 96 3e d5 43 6c 3d
       -0.0003686262 0.11583021 0.29376528 0.057681877
000110 65 c6 87 3d 34 4f 81 3e d0 59 cc 3d 3c d0 0c 3d
       0.06629638 0.2525574 0.09978068 0.034378275
000120 a8 46 53 3c f5 2e 66 3d a3 41 26 3d 1c ae 9c 3d
       0.012895264 0.056197125 0.04058994 0.07650396
000130 d0 ea 7b 3d 06 cb 41 3d 8a 8a 9f 3d f0 34 91 3c
       0.06150323 0.04731276 0.07790096 0.017725438
000140 1e 26 31 3e 82 78 9b 3d ed db 83 3d e9 19 c8 3e
       0.17299697 0.075913444 0.06438432 0.39082268
000150 f2 ea 21 3d 63 f8 74 3d f5 ed cf 3d 3f a6 02 3d
       0.039530702 0.059807193 0.101528086 0.031896826
000160 e9 b4 8f 3d 1c 62 b2 3c 4b 4d 68 3d 4c ca 8b 3d
       0.07016928 0.021775298 0.056714337 0.068256944
000170 da 01 8d 3d f2 80 22 3d d2 1b b4 3d 00 65 88 3c
       0.06885119 0.039673753 0.08794369 0.016649723
000180 03 cc 11 3d af da f9 3a cd 4e 7f 3e 98 e3 0e 3e
       0.03559495 0.0019062365 0.24932404 0.13954008
000190 2b 3d b5 3d 20 76 53 3d 93 3a 89 3d b9 4e 95 3d
       0.088495575 0.051626325 0.06700625 0.07290406
0001a0 94 15 ea 3c 51 ee c1 3e 4b 40 81 3d 97 bb fb 3c
       0.028574742 0.37877133 0.06311091 0.030729098
0001b0 eb e3 40 3d c4 80 9d 3d 8b 9e 12 3d 7e 15 de 3c
       0.04709236 0.07690576 0.03579573 0.027109858
0001c0 9e d6 34 3d 46 87 b0 3d 6e 7b 89 3c 8c 88 ee 3c
       0.044149987 0.08619551 0.016782489 0.029117845
0001d0 2e 7f af 3d f2 3b 7b 3e 46 7e 71 3c 2f 38 32 3d
       0.085691795 0.24534586 0.014739579 0.043510612
0001e0 6e 7b 3a 3e 02 0d 8b 3d 69 f3 cd 3e 67 8f 13 3c
       0.18211147 0.067895904 0.4022477 0.009006358
0001f0 5f 6b ac 3e e8 4b 95 3d 98 b0 16 3e 87 67 84 3d
       0.33675668 0.072898686 0.14715803 0.06465059
000200 b5 5f 9a 3d 7f d8 a9 bc de e5 fc 3a c2 0a 31 bc
       0.07537786 -0.020733116 0.001929458 -0.0108057875
000210 b3 b7 6d 3d d9 6f 85 3d e2 e7 07 3c d2 fb b7 3c
       0.058036517 0.06515474 0.008295031 0.022458944
000220 a3 43 37 3d 24 c0 f7 3c f9 62 b2 bc 3e b1 d1 bb
       0.044742238 0.030242987 -0.02177571 -0.0063993027
000230 0e 3b ac bc 22 fd 53 3d 3c 6d a2 bc fc 3d 87 3d
       -0.021024253 0.051755078 -0.019827478 0.066036195
000240 e1 12 86 3d 51 2f bf 3c b5 09 02 3d b4 ff 84 3d
       0.065465696 0.023337992 0.03174754 0.06494084
000250 bb 2c 74 3b 18 b5 a3 3c d7 c1 55 bc 56 1e 8c bc
       0.0037258107 0.019983813 -0.013046703 -0.017104309
000260 63 b3 64 3d a9 66 64 3b 28 1e 82 3d 89 ea 23 3c
       0.05583514 0.003485123 0.06353408 0.010004648
000270 49 a5 5f 3c b3 26 f2 38 de ef 0a 3d df 70 35 3d
       0.013650247 0.000115466675 0.03392016 0.044297095
000280 d9 89 c3 3c a4 e4 dc 3c e6 03 57 b8 ec 5f 27 3d
       0.023869442 0.026964493 -5.1263625e-05 0.040862963
000290 99 22 8f 3b 85 ff 6a 3b f2 d9 06 bd 4b 5c 1a 3d
       0.004368138 0.0035857868 -0.032922693 0.037685674
0002a0 83 5a 0c 3c ba e3 60 3b b4 ca a3 3c a5 b3 21 3d
       0.008566502 0.0034315423 0.019994117 0.039477963
0002b0 59 64 12 3d 78 c9 55 3c 40 38 91 3c 5c 1e 44 3c
       0.03574023 0.013048522 0.017727017 0.011970129
0002c0 cc 28 d1 bb aa ad 36 3a 05 6b 81 3d 16 5b 9e 3d
       -0.006383037 0.0006968627 0.063192405 0.07732217
0002d0 e5 0b 5c bc 91 c6 dd 3c 25 8f ba 3c d0 0a 9f 3d
       -0.01343057 0.027072223 0.022773335 0.07765734
0002e0 af 05 72 bb 48 42 b9 bc f3 4d 2a 3c 20 58 d7 bc
       -0.0036929657 -0.022614613 0.010394561 -0.026287138
0002f0 ce 7d 06 3d 01 13 3a 3d e6 31 98 3d 86 fa 19 3b
       0.03283482 0.04542828 0.07431392 0.002349527
000300 64 b8 63 3d 36 5b c8 3b 4f 56 03 bd f5 73 52 3d
       0.05559577 0.006114389 -0.032064732 0.051380116
000310 9a 77 70 bb fd 65 6c bb 6a 52 d6 3c 2d d2 33 3d
       -0.0036692382 -0.0036071532 0.026162345 0.04390161
000320 4a 45 40 3b d0 a8 4f 3d 88 f8 13 3c 53 dc 12 3c
       0.0029338174 0.0506981 0.009031422 0.008963662
000330 80 9e 8c 3d be 56 68 bb c7 57 44 3d cf ba 8b 3d
       0.06866169 -0.0035452093 0.047935273 0.0682274
000340 4b 38 d9 3c 57 af 95 bc fe 90 b0 3c fa 2f ca 3c
       0.0265161 -0.018272085 0.021553513 0.02468108
000350 76 a9 14 3c 72 b3 43 3d 73 8d 83 bc a5 57 61 3d
       0.009073606 0.047778554 -0.01605866 0.055015225
000360 9f 23 64 bc 1d 16 39 bc 99 b7 0b 3d 58 82 97 3c
       -0.013924508 -0.011296776 0.03411064 0.01849477
000370 14 22 89 3d 63 cd 15 3d 8f e0 30 3d 17 3a 24 bc
       0.06695953 0.036572825 0.043182906 -0.010023615
000380 df ab e1 3c ef bd c0 bb b4 bb a1 bd e8 f6 98 3d
       0.027547775 -0.005882017 -0.0789713 0.07468969
000390 41 1d 75 3c d4 32 cb 3c 0c bf 85 3d 5e 52 3c 3d
       0.014960588 0.02480451 0.0653058 0.04597699
0003a0 7f 60 07 3d 8a 8e d0 3d d8 8b 3e 3d 2d 5f 6f 3d
       0.03305101 0.10183437 0.046520084 0.058440376
0003b0 f3 10 15 3c 85 b6 8a 3d d1 23 88 3a 58 f8 a2 3b
       0.009098279 0.06773094 0.0010386651 0.0049734525
0003c0 b5 49 ae 3c 95 d9 64 bb 3c db 31 bc f0 d4 29 3d
       0.02127538 -0.0034919728 -0.010855492 0.04146284
0003d0 67 03 50 3c 7b 44 9e bd 73 aa 53 bc bc fe ee 3c
       0.012696124 -0.07727905 -0.012919056 0.029174201
0003e0 f9 b6 92 bd 31 27 16 3d 2a b1 75 bc 2a 60 63 bc
       -0.071638055 0.03665847 -0.0149958525 -0.013877908
0003f0 8e e3 9a bc de ea 9b 3c cc 29 fe 3c 1a 89 3c 3d
       -0.018907335 0.019032892 0.03102579 0.046029188

lstm.bias_hh_l0 f4 [512]
000000 6c 79 b2 3d 38 6e 6a 3c 90 64 8c 3d b7 fe 09 3d
       0.08714566 0.014308505 0.06855118 0.03369018
000010 ed a9 eb 3d 32 33 48 bb 0a 0b 0f 3d a4 98 62 3e
       0.1150702 -0.0030548093 0.034922637 0.2212854
000020 6a 0d 80 bb 18 78 a9 3d 9b 4b b9 3d 4d 2c 01 3e
       -0.003907849 0.08274859 0.09047624 0.12614556
000030 b9 a9 f5 3b d8 40 90 3d 33 e7 5b 3d 88 c6 e9 3b
       0.007497039 0.07043618 0.053687286 0.0071342625
000040 92 0d d4 3d 87 ae 26 3c d4 fe e3 3b e3 d2 71 3d
       0.10354151 0.0101734465 0.006957868 0.059039008
000050 dd 97 cf 3d 21 68 93 3d 32 6d 4c 3d d2 a3 22 3d
       0.101363875 0.071975954 0.049908824 0.039707012
000060 f0 02 c6 3d d4 14 63 3b bc 3a 42 3d 2c 05 69 3d
       0.09668529 0.0034649866 0.047419295 0.056889698
000070 d5 76 ca 3c 8c 02 9e 3d 0b 12 d4 3e 95 8b a1 3d
       0.024714867 0.077153295 0.41420016 0.07887951
000080 16 fe 16 3c d5 d0 0f bb 3c d8 f2 3c 48 c4 48 3e
       0.009215852 -0.0021944542 0.029644124 0.19606125
000090 48 3c 95 3d 8a f9 a9 3d f8 60 b1 3e cd 0d 16 3d
       0.07286888 0.08299549 0.34644294 0.036634255
0000a0 d0 3a 61 3e 51 3a 53 3e 85 6b 99 3d e6 3e 65 3d
       0.21995091 0.20627715 0.07491211 0.055968188
0000b0 c1 2a 3e 3d 9a d2 ba 3d 7b 6c 19 3d dd 2c b2 3d
       0.046427492 0.091222 0.03745697 0.08699963
0000c0 fc 88 b3 3d 1b f3 dc 3d 95 85 86 3d e5 a0 8e 3d
       0.08766362 0.10788556 0.065684475 0.06964282
0000d0 bb 45 46 3e fd 05 d0 3e a4 b4 49 3d 86 d2 cd 3c
       0.19362538 0.4062957 0.049244538 0.0251248
0000e0 49 de 12 3e 94 91 e4 3d 83 57 c2 bb 8a 05 e5 3c
       0.14342608 0.11160579 -0.0059308424 0.027956743
0000f0 9c 85 43 3e 11 a0 ae 3d d7 f5 90 3d 42 50 d8 3d
       0.19093937 0.08526624 0.0707814 0.10562183
000100 00 28 4a 3d 22 4f 9c 3d 43 07 a0 3e 0e 9f e9 3c
       0.049354553 0.07632281 0.3125554 0.028518226
000110 41 bf cd 3d 6e 2f 84 3e 2a 05 e7 3b fb 91 dc 3c
       0.100462444 0.25817436 0.007050176 0.026925078
000120 c5 2d ba 3d c6 2c 4d 3d 08 27 85 3c db 1f b6 3c
       0.09090761 0.050091527 0.016253963 0.022231987
000130 5a 51 d0 3c 02 dc 54 3d 96 9b 90 3d e0 69 79 3d
       0.025429416 0.05196763 0.07060926 0.060891986
000140 1b d7 31 3e 84 35 5f 3d db 64 c9 3c 18 e6 d0 3e
       0.17367212 0.054494396 0.024584224 0.40800548
000150 8d 0b b4 3d 49 cf 6e 3b 4c 9e b4 3d e5 86 1a 3d
       0.08791266 0.003643947 0.08819255 0.0377263
000160 34 e4 ba 3d 50 c7 d0 3c ee f4 5b 3d 7d 2e 94 3d
       0.091255575 0.025485665 0.05370038 0.072354294
000170 2c 33 2e 3d 61 7f 9f 3c cd 7b 69 3d f2 96 a8 3d
       0.04252927 0.019469919 0.05700283 0.082319155
000180 8a b3 17 3d 20 91 25 3d 22 7b 9f 3e b3 0c 0c 3e
       0.037036456 0.040421605 0.3114863 0.1367672
000190 f4 7c 2a ba 2c 53 7a 3d a4 2c e6 3d 12 19 8a 3d
       -0.0006503605 0.061114475 0.11238983 0.06743063
0001a0 6d aa 68 3d 4a c7 ba 3e 64 c1 50 3c 83 f0 a5 3d
       0.056803156 0.3648017 0.01274142 0.081025146
0001b0 01 96 51 3d fc 94 49 3c 1f e2 ac 3b 52 c5 e1 ba
       0.051168445 0.012303587 0.005275979 -0.0017224944
0001c0 b3 86 22 3d dc e5 df 3b 6d 1f 35 3d 7f a1 cd 3c
       0.03967924 0.0068328213 0.044219423 0.025101421
0001d0 16 25 46 3d 27 24 6c 3e b4 db b9 3c 11 de cd 3b
       0.04837521 0.23060666 0.02268777 0.006282576
0001e0 e4 99 7d 3e cf 16 94 3c 40 83 c4 3e f6 fc 85 3d
       0.24765736 0.018077282 0.38381386 0.06542389
0001f0 8e cc 81 3e ac 15 12 3d bb 2e f4 3d 97 e8 fd 3c
       0.25351375 0.0356652 0.11922976 0.030994697
000200 cd dd 98 3d c4 5a 83 3d 87 32 6f bc 7d 29 f9 3c
       0.0746418 0.064137965 -0.014599449 0.030415291
000210 0c 56 99 3d 65 45 83 3d cf 17 a5 3b cc ac 14 3d
       0.07487115 0.0640972 0.0050382386 0.036297604
000220 02 b6 71 3b 7f 6a 02 3d 79 b8 12 3c 74 f4 5c bb
       0.0036882167 0.031839844 0.0089551145 -0.0033715041
000230 46 17 85 3c 33 34 43 3d 1f 60 0f 3c a9 51 88 3d
       0.01624645 0.047657203 0.008750944 0.066562004
000240 0f b0 f3 3c 3a b9 ba b9 1a 7b 35 bc de 5e 80 3d
       0.029747037 -0.0003561469 -0.011076713 0.062680945
000250 26 56 57 3d 59 fa d6 3c f4 9d 71 ba 81 96 5b 3d
       0.052572392 0.026242422 -0.0009216957 0.05361033
000260 b5 04 60 3d 73 9c 05 3d 8a a6 41 3d a8 c1 89 b9
       0.05469199 0.032619905 0.047277965 -0.0002627496
000270 38 a3 4b 3c 40 9c 1c 3d 46 09 a9 3b a4 b3 b3 bc
       0.012429051 0.03823495 0.005158576 -0.021936245
000280 81 fd fd 3c 80 16 c3 3b 17 81 aa 3d 37 11 62 bd
       0.03100467 0.00595361 0.08325403 -0.0551922
000290 94 8a c8 bc 9d 89 8b bc 1f 8f 60 3c fa ac 18 3d
       -0.024480142 -0.017033393 0.013705998 0.03727434
0002a0 f4 bf 20 3d 16 1f f1 bb 28 39 72 3d a1 9c 0b 3d
       0.03924556 -0.007358442 0.05913654 0.03408492
0002b0 8c f0 24 3b 1b f3 8c bc 24 8b 72 3c 4f 88 c3 bc
       0.0025167791 -0.017205765 0.0148036815 -0.023868708
0002c0 9a 96 8f 3d 90 01 e4 3c 29 54 06 3b fc dc 2e 3c
       0.07011147 0.027832776 0.002049694 0.010672804
0002d0 9c 4c 22 3d 02 a9 40 3d 07 d4 06 3d 43 66 33 3d
       0.03962384 0.04703618 0.03291705 0.043798696
0002e0 2f 73 7a bc a3 41 55 3c d4 79 3e 3d ee 73 67 3c
       -0.015286251 0.013016137 0.046502903 0.014126761
0002f0 8d 05 31 bc 98 d9 9d bc 5b 7f 15 3d 61 12 dc 3c
       -0.010804546 -0.019268796 0.03649841 0.026864232
000300 c9 35 a6 ba 64 ae 0e bb e5 11 86 3c f5 36 42 3d
       -0.0012680824 -0.0021771425 0.016365955 0.047415692
000310 85 65 3a 3c de 01 1a bd b2 fd 3d 3d 35 d6 97 3d
       0.011376743 -0.037599437 0.04638452 0.074139036
000320 9a 52 01 3d cb 8b 99 3d d6 11 92 3d 9e 6f 86 3d
       0.031572916 0.074973665 0.07132308 0.06564258
000330 b1 f7 8b 3d 7f 97 97 3c ae 68 17 3c 88 87 04 3d
       0.06834353 0.018504856 0.009241266 0.032355815
000340 b3 6d 40 3d cb 3f 3a 3d 69 2f c4 3c 3a 96 60 bc
       0.046979617 0.045470994 0.023948388 -0.013707692
000350 d3 5d c3 3c 6b 70 85 3d 74 37 19 3c 04 b9 16 3d
       0.02384845 0.06515583 0.0093516 0.03679754
000360 83 6f 52 3d 0d a1 8a 3d b1 62 53 bc bf e7 83 3b
       0.051375877 0.06768999 -0.012901948 0.004025429
000370 78 6c ab bb 2b 6f 4b 3d 2f c3 21 3c 99 76 1b 3d
       -0.0052314363 0.049666565 0.009873196 0.0379549
000380 44 b3 86 3d b8 89 ed 3c c2 9e 15 bc 23 81 91 bc
       0.06577161 0.028996333 -0.009132089 -0.017761772
000390 48 f0 39 bc a1 2b eb 3c 99 af 20 3d 0a e9 55 3d
       -0.011348791 0.028707327 0.039229963 0.052224196
0003a0 44 f6 4b 3b 84 33 f6 3d af d7 26 3b 5a e5 a7 3c
       0.0031122128 0.120215446 0.0025458147 0.020495106
0003b0 50 96 0e 3d 0d 9a 48 bc b2 f0 5a 3d b6 c3 94 bc
       0.034811318 -0.01224376 0.0534522 -0.018159728
0003c0 f1 e3 74 3d b1 da f9 3c 3c 02 a6 3c 5e 0a 5a 3d
       0.059787694 0.030499788 0.020264737 0.053232543
0003d0 64 77 89 3d cf 47 9e bd 54 eb 2e 3c 41 1c f1 3c
       0.06712225 -0.0772854 0.010676224 0.029432418
0003e0 92 90 68 bd 57 00 64 3c 78 5a 36 bd 97 5f aa 3c
       -0.056778498 0.013916097 -0.04451987 0.020797534
0003f0 78 83 83 bc 72 75 a5 bc ab 91 68 3d e2 a4 cb bc
       -0.0160539 -0.020197604 0.056779545 -0.024858896

fc.weight f4 [89, 128]
000000 59 3d ca 3d bb 9f 0f be eb 58 fa bd 28 dc 1d 3e
       0.098749824 -0.14025776 -0.12223991 0.15416014
000010 e6 b5 6a 3e 12 85 1d be 91 07 d1 3d 0a 09 b6 3a
       0.22920951 -0.15382794 0.10206521 0.0013888192
000020 3a 32 ab 3d 17 b9 34 3e 02 43 40 3e 70 17 94 3e
       0.08359189 0.17648731 0.18775561 0.2892413
000030 51 8a 61 3d e4 b8 75 bd b6 45 a7 bd 13 cd e0 3d
       0.05506355 -0.05999078 -0.08167593 0.10976615
000040 42 e2 43 3e d4 8e 96 bc 9d 92 67 be 5c 14 14 3e
       0.1912928 -0.018378653 -0.22614522 0.14460891
000050 cc 2c 49 be 70 e6 e5 3d df 9d ab bd 71 32 1e bd
       -0.19645995 0.11225593 -0.08379721 -0.038622323
000060 92 39 3c be 05 ac 5d be 9a b5 78 3e ad 28 d3 3d
       -0.18381336 -0.21647651 0.24288025 0.10310493
000070 18 43 f0 bd 32 c8 fb 3d cb 55 85 be 1a 36 3d be
       -0.11731547 0.122940436 -0.26042017 -0.1847767
000080 75 38 31 be fd 0f c0 3d d6 61 74 3e 09 2c 79 3e
       -0.17306693 0.093780495 0.23865446 0.24333204
000090 c1 91 e0 3d 04 ba 31 3e 5b fe a0 3e d0 9d 9c bd
       0.109653 0.17356116 0.31444058 -0.07647288
0000a0 60 60 9e 3e db ee 52 be 55 13 3d 3e fc 70 62 3e
       0.30932903 -0.20598929 0.18464406 0.22113413
0000b0 fa 87 21 3e 6d e1 a0 bd ef bf 62 bd 05 0d 89 be
       0.15774527 -0.078554966 -0.055358823 -0.26767746
0000c0 7c 92 18 3e 63 b6 bd be 67 cc 39 3e 37 12 0d 3e
       0.1489963 -0.37053213 0.1814438 0.1377648
0000d0 e4 9b 22 3e 29 04 09 3e 88 1d ba bd d2 8d c0 3d
       0.1587978 0.13380493 -0.09087664 0.0940205
0000e0 b5 96 a3 bd 11 f0 3c 3e 47 3e 38 3e 7c c5 77 3e
       -0.079877295 0.18450953 0.17992507 0.24196428
0000f0 6b 59 5e be 7d 12 f7 3d 0c 64 01 3e 6a ad 3b bd
       -0.21713798 0.12064073 0.12635821 -0.045819677
000100 c0 ce b4 3d 8c 79 e5 bd 67 64 69 be 98 62 16 be
       0.08828497 -0.11204824 -0.22792207 -0.14686048
000110 06 f9 02 be 59 ad 7a 3e 45 4d 99 3d c2 4e 2b 3e
       -0.12790307 0.2448019 0.07485441 0.16729262
000120 de e9 26 be 17 38 03 be b5 ff 5c be cf 3c 6a ba
       -0.16300151 -0.12814365 -0.2158192 -0.0008935453
000130 87 4b 7d be 85 7b 37 be 92 64 9d bd b4 10 af bc
       -0.24735843 -0.17918213 -0.07685198 -0.02137027
000140 f0 f8 88 3e 29 b3 16 3e d0 f5 4d 3e 3d 0e 84 3e
       0.26752424 0.14716782 0.20113301 0.25792113
000150 ec 8d d3 3d 3e ef 5e bd b5 e3 20 3e 8c cd 17 bc
       0.10329804 -0.054427378 0.15711863 -0.009265315
000160 43 c6 03 bd 81 a3 58 bd d8 fb 6e 3e 65 9a a6 bd
       -0.0321715 -0.052890304 0.23338258 -0.08134917
000170 f6 38 af bd e1 0b 82 be da 60 17 3e a4 06 3d be
       -0.08555786 -0.25399688 0.1478304 -0.18459564
000180 81 b5 86 3e 66 96 3b 3e b2 56 75 be 3d 86 34 3e
       0.26310351 0.18319091 -0.23958853 0.17629333
000190 fa 30 7c bd e7 91 1b 3e 3c c5 4c 3e fe 41 29 3e
       -0.061570145 0.15192376 0.19997114 0.1652908
0001a0 85 86 62 3e 45 21 1f be 23 2a 0b be b7 b0 f0 bd
       0.22121628 -0.15540035 -0.13590293 -0.11752456
0001b0 aa f1 53 3e d4 fe 04 be b0 a2 5a 3e 26 76 80 be
       0.20697656 -0.12987834 0.21351123 -0.2509014
0001c0 9b 4c f7 3d fd e2 fb bd d4 05 02 be 02 0b be bd
       0.12075158 -0.12299154 -0.12697536 -0.09279443
0001d0 a5 ec 92 3d 54 18 92 3e 13 f7 30 be 2e 10 1a bd
       0.071740426 0.28534186 -0.17281751 -0.037613086
0001e0 43 7c 2d 3e 2e 4c 86 3e 7a b0 80 3e ac 1b fa 3d
       0.16941933 0.26229995 0.2513464 0.12212309
0001f0 d3 6c c0 be 77 cb 50 bd 0f 25 5a 3e f1 b7 e8 3d
       -0.37583026 -0.05097529 0.21303199 0.11363209
000200 e0 8d d3 bd 66 bd a7 bd cc 57 05 bd cc c9 bd bc
       -0.10329795 -0.08190422 -0.032554433 -0.023167513
000210 67 41 bc 3d 3d a3 be 3d 36 3c 7f bd e1 d8 f4 bd
       0.09192162 0.09308479 -0.06231328 -0.11955429
000220 7c 21 11 bd 9a bb c6 bd 34 c2 7a 3d a5 a6 db bd
       -0.035432324 -0.09703751 0.061220363 -0.10725144
000230 8e 25 6f 3d e0 25 3c bd d0 e8 b3 3d 4f 51 b5 bd
       0.058385424 -0.045934558 0.0878464 -0.08853399
000240 3f 08 b7 3d 94 ae 87 bd 37 00 91 3c 1e 42 ac 3c
       0.0893712 -0.06625095 0.017700298 0.02102762
000250 c3 8e db 3c 87 d9 78 bd 61 c2 a9 bd cc 78 99 3c
       0.026801473 -0.060754325 -0.08289028 0.018734358
000260 d7 2f d8 3d 44 27 d6 3d 7a 40 90 bd c3 c4 db 3d
       0.10556 0.10456708 -0.07043548 0.10730889
000270 e2 1c de bd 52 ec 4a bd 70 f2 21 be 43 00 9f 3d
       -0.10845353 -0.04954178 -0.15815139 0.07763722
000280 94 13 a5 bd 1e d4 88 bd 6b a2 88 bd 6c dc d1 bd
       -0.08060375 -0.06681083 -0.06671604 -0.1024712
000290 63 ce c0 bd 8c 1b 9b bc 19 34 5d bd ef 83 97 3d
       -0.09414365 -0.018934034 -0.054004762 0.07398211
0002a0 3b 9b 63 3e 7e fe 7f 3e 61 dc e7 bd d7 52 2a bc
       0.22227184 0.24999425 -0.11321331 -0.010395727
0002b0 65 a6 ad 3d 73 74 60 bd c4 09 55 bd 7e f9 11 be
       0.08479003 -0.054798555 -0.052011266 -0.1425533
0002c0 95 f9 a7 bc 66 f1 8b 3d f5 2c d9 bd 66 20 85 bd
       -0.020504752 0.068331525 -0.10604278 -0.0650032
0002d0 29 5a 3b 3e 07 f4 15 3e e3 de 5e 3d 02 a0 75 bd
       0.18296112 0.1464387 0.05441178 -0.05996705
0002e0 20 01 cb bd ef b9 5a bd 77 92 0a 3d 9f ac aa bd
       -0.09912324 -0.053399976 0.033831086 -0.08333706
0002f0 65 f2 8c 3c 85 d6 71 bd 3f da 8a bd 61 fb fc bd
       0.017205426 -0.059042472 -0.067799084 -0.12352634
000300 10 c4 90 bc 12 65 bc bd 13 5f 47 bd 4e 97 59 3d
       -0.017671615 -0.09198965 -0.048674654 0.05312281
000310 bf 8c 1c be cf c7 ba bd 47 28 ff bd 89 07 8c bd
       -0.15288065 -0.09120142 -0.12458854 -0.06837375
000320 0c f7 b2 3d 9d a9 a1 3d 82 48 16 3c c0 30 b5 3d
       0.08738527 0.07893679 0.009172561 0.08847189
000330 01 8d b5 3d a0 3b e2 bd 6f 8f b6 bd 16 55 51 bd
       0.08864785 -0.11046529 -0.089140765 -0.051106535
000340 f8 db 29 be db f4 fa bc 5e 58 99 bd c6 3a 4f bd
       -0.16587818 -0.030634334 -0.07487558 -0.05059316
000350 c8 34 8a bd 5a 90 95 3d 1c 34 d6 bd 81 50 63 bd
       -0.067483485 0.073029235 -0.10459158 -0.055496696
000360 54 e3 03 3d 4a 4b 8f bd eb 35 c5 bd 45 c9 de 3d
       0.03219922 -0.06996782 -0.09629425 0.10878233
000370 d7 f0 93 3c e3 1c dc 3c 46 b3 69 bd 0e 5e 87 3d
       0.018059177 0.026869243 -0.057055734 0.066097364
000380 34 55 a3 bd 71 1f cc bd a0 8c 5e 3d ab 18 3e bd
       -0.079752356 -0.099669345 0.05433333 -0.046410244
000390 e0 70 0b 3d 61 af b5 3d 1f 9a a3 bd d9 d7 c5 3c
       0.034043193 0.088713415 -0.07988381 0.024150776
0003a0 35 e8 70 bd 75 0c 04 3e 7f d3 aa bd 06 cf 67 3d
       -0.0588152 0.12895377 -0.08341121 0.056593917
0003b0 74 92 ce bd fb 63 ae 3d b0 51 9d bd 22 a6 2c 3d
       -0.100865275 0.085151635 -0.07681596 0.042150624
0003c0 34 d5 83 3d 99 5c 89 bd 87 40 5c bd cb 14 de bc
       0.0643715 -0.06707115 -0.053772476 -0.027109524
0003d0 d7 67 04 3d 10 f5 4b be 01 62 86 bc e8 a3 61 bd
       0.032325592 -0.19917703 -0.016404154 -0.055087954
0003e0 40 11 ca 3d b8 f9 d9 bd 8b d9 d6 bb d2 f4 9e 3d
       0.098665714 -0.10643333 -0.006556695 0.077615395
0003f0 49 87 75 bd 8d e8 8a bd 8e 3b 33 be f8 ae 39 3d
       -0.05994347 -0.06782637 -0.17503187 0.04533288

fc.bias f4 [89]
000000 0e 61 68 3d f6 0a c0 bb d8 91 bb bd 2a 96 2c bd
       0.056733184 -0.0058606816 -0.09158677 -0.042135395
000010 38 5f cc bc 39 aa b3 bc 39 72 32 bc 73 2e 96 bd
       -0.024947748 -0.021931754 -0.010891491 -0.07333078
000020 3d 45 cb bd 0e c6 22 bd 8b 5a 65 bd 83 3b cf bd
       -0.099253155 -0.03973966 -0.05599455 -0.10118773
000030 85 a8 d9 bc d1 ae 10 bc e1 e1 a8 bd 0a 66 8f bd
       -0.026569614 -0.008830742 -0.08246208 -0.07001884
000040 92 7d ad bc 63 a7 9f bd 3a ea 60 bd 2d 45 83 bb
       -0.02117804 -0.07795598 -0.054910876 -0.004006049
000050 61 f4 ad bc 33 27 78 bd f5 25 67 bd 5d 96 0d bd
       -0.021234693 -0.06058426 -0.056432683 -0.034567226
000060 f2 83 d4 bb 01 b3 ba bd 61 70 ca bc a6 f8 4a bd
       -0.0064854557 -0.091161735 -0.02471179 -0.049553536
000070 05 c2 93 bd 88 83 a6 bd 20 70 49 bc 96 1b 9c bd
       -0.07214741 -0.08130556 -0.012294799 -0.07622449
000080 34 d9 a6 bd b4 8d 83 3d 3f 37 95 bc 82 ca 5d bc
       -0.08146897 0.06423512 -0.01821482 -0.013537051
000090 f2 1a 8f bd fa 87 5d 3c d0 79 9d 3d 54 d1 a8 bd
       -0.06987561 0.013521189 0.076892495 -0.08243051
0000a0 58 da 16 3b 19 a2 c5 b9 de b7 af 3d b0 8a 81 3d
       0.0023018327 -0.0003769554 0.08579992 0.06325281
0000b0 1a 5c 17 bd 60 a7 90 3d 8e b3 30 bd 42 7c b8 3d
       -0.03695307 0.07063174 -0.043139987 0.09008075
0000c0 d5 ee bb 3d ee 6a 32 bd d3 ea 94 bd 4a eb 41 bd
       0.09176413 -0.043559007 -0.07271352 -0.04734353
0000d0 c8 66 3c bd db 43 86 bd 21 2e 38 bd 41 47 94 bc
       -0.045996457 -0.06555911 -0.044965867 -0.018100383
0000e0 66 79 a5 bc 6c 21 ca bd 8c 01 81 3d 84 cc 5a bc
       -0.020199489 -0.09869656 0.06299123 -0.013354424
0000f0 42 58 1c bc f9 83 a8 bd b9 16 5e bc 15 02 47 bd
       -0.009542527 -0.08228297 -0.013555222 -0.04858597
000100 30 c5 98 bd c6 c5 c5 bd 0f 21 9c bd 3c ab 4e bd
       -0.074594855 -0.09656863 -0.07623493 -0.05045627
000110 3d 93 27 bc ce 51 4c bd b2 40 f6 bc 2e 37 c9 bd
       -0.010227975 -0.049882703 -0.030060146 -0.09824978
000120 79 5f 31 bd 47 f1 9e bd d8 67 bb bd 64 e0 b7 bc
       -0.04330394 -0.07760864 -0.09150666 -0.022445865
000130 1f 3b 51 bd b0 7f 1a bd 90 49 aa bd 97 e2 8e bd
       -0.051081773 -0.03771943 -0.08314812 -0.06976812
000140 ce 84 14 bd c4 da b1 bd 34 1f 95 bc 3f 15 89 bd
       -0.036259465 -0.08684304 -0.018203355 -0.066935055
000150 a0 d0 62 bd da 20 ba bc 15 10 c7 bc 59 eb e1 bc
       -0.05537474 -0.022720743 -0.02429966 -0.027578043
000160 ab 74 39 bd
       -0.04527728
