src/models/charlie_parker/pretrained/generator.pt (torch_old, 467324 bytes, 7 tensors)

embedder.weight f4 [89, 64]
0.29779986 -0.35706154 -0.35058805 -0.36610338 0.3827983 -0.37663883 -0.4099349 -0.26627338
0.3074455 -0.34882307 0.31043664 0.28138766 -0.38926095 0.35535455 -0.41013733 0.2879776
-0.31121507 -0.25206062 0.28081635 -0.2793984 -0.4298724 0.33013487 0.31151778 0.3225732
-0.32105947 0.24478243 -0.27083266 -0.35413647 0.35925752 -0.24822387 -0.3415838 -0.40275723
-0.20440355 0.21748137 0.37455192 0.4564547 -0.14155692 -0.2622008 -0.30051118 -0.35658786
-0.266885 -0.4128077 0.15220863 0.119850814 0.34075922 -0.29248396 -0.24070227 -0.28293404
-0.25846857 0.44917372 -0.33682615 -0.34391928 0.13413511 0.39328656 0.23357496 0.31185874
0.34214154 -0.32868174 -0.33291122 0.37192366 0.36579984 -0.4358452 0.23674919 0.33173186
0.02869453 0.020783622 0.024101127 -0.0076029226 -0.036482584 0.016195115 0.019770931 -0.0059372373
-0.017611999 -0.006404709 0.0119923465 -0.0019650944 -0.037827145 -0.01051674 0.013206128 0.022125456
-0.037149213 0.029265437 0.044191163 -0.00044281408 -0.0075255856 0.031158756 0.02479029 -0.0060592964
-0.039392103 0.04663408 -0.0041143373 -0.027821219 0.011520244 -0.029835148 -0.023571366 0.012124885
0.011741333 0.01367357 -0.044001758 -0.03846656 0.025026422 0.00944056 -0.041801702 0.042578403
0.018701788 0.04973625 0.00012990087 0.03648525 0.029762957 0.048627023 0.02900568 0.043265674
-0.042882618 -0.03598287 0.044431303 -0.002552934 0.016787637 0.036649097 -0.042120498 -0.009074815
-0.042111646 0.04501204 0.021685597 -0.018671416 0.002229929 0.025547039 0.013189573 0.0010682754
-0.03961583 0.008913636 -0.02570957 0.018133525 -0.019578183 0.045544703 -0.045194265 0.025954831
0.047788825 -0.009059381 -0.006706167 0.005957067 0.029892799 0.008383028 0.034937467 0.00096497685
0.045108896 0.03183691 -0.00066190213 -0.005794525 -0.041859698 -0.013285596 -0.0057242997 0.04114789
0.027331423 -0.045780826 -0.032500345 0.04451676 0.017925013 0.049889002 -0.03362576 -0.041473497
-0.0183767 -0.02850551 0.042789888 0.013879117 0.0410791 -0.044607587 0.0031179301 -0.02984999
0.03573634 0.0074211955 0.0064079985 0.019621227 -0.04615749 -0.036565 0.029117253 -0.021739257
-0.023813749 -0.025275273 -0.010771401 -0.020701248 -0.00326965 0.0017933436 -0.018022656 -0.02460928
0.0021832883 0.02059238 0.008586366 0.012651797 0.017392937 0.04668804 0.032517944 -0.034885477
-0.0025907755 0.012199085 0.048867617 -0.02082839 -0.03545771 -0.003295403 -0.009513836 -0.018731188
-0.031216556 0.033205066 -0.02827366 0.01184985 -0.019479567 -0.016758215 0.04563563 -0.030413508
0.0015699863 0.041536074 0.016215775 -0.018319894 -0.040474903 0.004769422 -0.02606604 0.049624983
-0.01747473 0.049748424 -0.00635875 0.029448632 0.01675288 -0.02315454 -0.0071013346 -0.00017377734
0.028793883 0.01990671 -0.040485848 -0.03802818 0.044160996 0.0018717535 -0.0048537627 0.029748607
-0.039007194 0.0067879558 -0.029617881 -0.016906194 0.026969094 -0.0261001 0.011770092 0.03987335
-0.017317187 0.015330199 -0.04525273 -0.032830253 -0.020021623 0.014650416 -0.0031523295 -0.0045328923
-0.046847522 -0.015155178 -0.04652051 0.032159094 0.0038218312 0.048167963 -0.028516924 -0.037401617
00000000: 3979 983e c5d0 b6be 4780 b3be e771 bbbe
00000010: 24fe c33e ced6 c0be fde2 d1be fc54 88be
00000020: 7f69 9d3e f098 b2be 8df1 9e3e 0b12 903e
00000030: 364d c7be 08f1 b53e 85fd d1be cd71 933e
00000040: 9557 9fbe 170e 81be 29c7 8f3e 4f0d 8fbe
00000050: 3c18 dcbe 7007 a93e 427f 9f3e 5128 a53e
00000060: e861 a4be 3fa8 7a3e 94aa 8abe 6051 b5be
00000070: 9af0 b73e 662e 7ebe 12e4 aebe 3236 cebe
00000080: 2a4f 51be 70b3 5e3e 45c5 bf3e 6eb4 e93e
00000090: 4cf4 10be 2f3f 86be 9adc 99be af92 b6be
000000a0: 27a5 88be 885b d3be 94dc 1b3e 5874 f53d
000000b0: fe77 ae3e 75c0 95be a87a 76be bbdc 90be
000000c0: fe55 84be 19fa e53e 7a74 acbe 3016 b0be
000000d0: b75a 093e db5c c93e 462e 6f3e f3ab 9f3e
000000e0: 2d2d af3e f948 a8be 5773 aabe c76c be3e
000000f0: 1e4a bb3e 1a27 dfbe 616e 723e c2d8 a93e
00000100: ca10 eb3c 6a42 aa3c ba6f c53c f021 f9bb
00000110: c36e 15bd 9eab 843c a6f6 a13c 288d c2bb
00000120: 0a47 90bc 98de d1bb 8c7b 443c d0c8 00bb
00000130: a3f0 1abd 684e 2cbc 845e 583c 7240 b53c
00000140: c629 18bd 12be ef3c cb01 353d 8029 e8b9
00000150: 3099 f6bb a640 ff3c 0215 cb3c 108d c6bb
00000160: 9d59 21bd 6103 3f3d 90d1 86bb 53e9 e3bc
00000170: 68bf 3c3c d768 f4bc bd18 c1bc 74a7 463c
00000180: b85e 403c 1c07 603c 303b 34bd 1d8f 1dbd
00000190: 3604 cd3c 94ac 1a3c 4338 2bbd b166 2e3d
000001a0: 7e34 993c 3db8 4b3d 0036 0839 8f71 153d
000001b0: 72d1 f33c 212d 473d 529d ed3c 5937 313d
000001c0: afa5 2fbd c662 13bd 99fd 353d 204f 27bb
000001d0: 3a86 893c 5d1d 163d 8b86 2cbd 88ae 14bc
000001e0: 437d 2cbd 8b5e 383d fea5 b13c ccf4 98bc
000001f0: 0024 123b 0648 d13c 1419 583c 6005 8c3a
00000200: 3544 22bd 800a 123c e09c d2bc c28c 943c
00000210: 6d62 a0bc 158d 3a3d 9f1d 39bd 3a9f d43c
00000220: 37be 433d cc6d 14bc 68bf dbbb 8033 c33b
00000230: bee1 f43c f858 093c 971a 0f3d 80f6 7c3a
00000240: 1bc4 383d 6b67 023d 8083 2dba 00e0 bdbb
00000250: 1375 2bbd d4ab 59bc e892 bbbb b18a 283d
00000260: 26e6 df3c ad84 3bbd 151f 05bd 3557 363d
00000270: 7ad7 923c 6958 4c3d 2abb 09bd 1de0 29bd
00000280: bc8a 96bc 6384 e9bc 7344 2f3d 3c65 633c
00000290: 8f42 283d 72b6 36bd 3056 4c3b f787 f4bc
000002a0: 4560 123d 802d f33b 30fa d13b b2bc a03c
000002b0: a30f 3dbd 2ec5 15bd 4e87 ee3c 8716 b2bc
000002c0: 0d15 c3bc 170e cfbc 887a 30bc aa95 a9bc
000002d0: a047 56bb a00e eb3a 40a4 93bc 6799 c9bc
000002e0: 8015 0f3b 5ab1 a83c d4ad 0c3c 7c49 4f3c
000002f0: a27b 8e3c f53b 3f3d 8931 053d 13e4 0ebd
00000300: 00ca 29bb acde 473c 6929 483d 4da0 aabc
00000310: 1b3c 11bd b0f7 57bb ecdf 1bbc 2672 99bc
00000320: ddb9 ffbc 0902 083d 2a9e e7bc e025 423c
00000330: 9d93 9fbc 8648 89bc 6dec 3a3d c025 f9bc
00000340: 00c8 cd3a bb21 2a3d f2d6 843c 9a13 96bc
00000350: 03c9 25bd d048 9c3b 7388 d5bc 9143 4b3d
00000360: 2a27 8fbc 01c5 4b3d 105d d0bb 423e f13c
00000370: 563d 893c 97ae bdbc 50b2 e8bb 0038 36b9
00000380: 26e1 eb3c 6613 a33c 7dd4 25bd 70c3 1bbd
00000390: 29e2 343d a055 f53a 500c 9fbb 5ab3 f33c
000003a0: 02c6 1fbd 806d de3b 33a1 f2bc dc7e 8abc
000003b0: 4aee dc3c e0cf d5bc 58d7 403c 3d52 233d
000003c0: c6dc 8dbc 842b 7b3c ed5a 39bd 0479 06bd
000003d0: 6304 a4bc 4c08 703c 5097 4ebb a888 94bb
000003e0: 30e3 3fbd 6c4d 78bc 4a8c 3ebd 41b9 033d
000003f0: b077 7a3b c54b 453d 539c e9bc 7032 19bd

lstm.weight_ih_l0 f4 [512, 64]
0.06836242 0.028449021 -0.5028837 -0.33392358 0.93002594 -0.48989108 -0.5878277 0.1810538
-0.07503306 0.21591887 0.6412903 -0.30557132 -0.32795343 0.7230217 -0.3622344 -0.023668347
-0.002615089 0.31126726 -0.15520303 -0.030129025 0.061488118 0.34487656 0.23997132 0.0152999805
0.06528635 -0.09458951 -0.18984379 0.40935686 0.43971348 0.20652263 -0.085091874 0.057287727
0.57172525 -0.14032131 -0.2989229 0.85525143 0.19489111 0.20353761 0.19324422 -0.45393813
0.158877 -0.123635255 -0.45060953 -0.59085387 -0.021830315 0.15652633 0.28254113 0.20962982
-0.5767704 0.79525566 -0.6826556 0.06578201 -0.2458593 0.11817238 -0.23784555 -0.29573533
-0.045588635 -0.548489 -0.23768489 0.7926258 -0.03626323 -0.6879906 -0.43144554 0.18783009
0.7568081 -0.79716396 -0.30526543 -0.06107029 1.0594832 -0.3489909 -0.7274131 0.2731116
-0.15204363 0.30539492 0.37405768 -0.1369092 -0.36676773 0.3126966 -1.0076135 0.45424291
-0.13390489 0.6385671 0.2645427 -0.36819348 -0.8887873 0.028016074 -0.009644849 1.2815909
-0.51663303 0.0013531027 -0.089929864 0.07951171 0.1384388 0.04828194 -1.214147 0.2704709
0.389497 0.21826294 0.24520946 0.72679275 -0.033600833 -0.54589456 -0.34110257 -0.55238646
0.15087487 -0.8762321 -0.32641318 -0.25215784 -0.7278323 -1.032599 0.23708737 0.59621465
0.3082018 0.94236356 -0.55967444 -0.39803544 -0.17205863 0.43788537 -0.16046251 -1.1450382
-0.52856606 -0.34749985 -0.17823142 0.6046137 -0.008508962 -0.80073655 -0.159866 -0.39878625
0.30742022 0.17918058 -0.4407327 -0.5532764 0.8441608 -0.54361194 -0.5228781 0.11417325
0.5646539 0.8036283 0.6197385 0.33153006 -0.34860572 0.5228836 -0.8101424 0.13838339
0.06562587 0.31106448 -0.07189078 -0.21844377 -0.29261562 0.29876882 0.14700419 0.2482564
-0.06618659 0.38373762 -0.34419364 0.5971695 0.53006965 0.09582459 -0.52455324 0.5939251
0.39717487 0.38266444 0.5359951 0.89170533 0.39773574 0.032497793 -0.231442 -0.37317213
-0.1931603 -0.23138441 -0.1837196 -0.48546907 -0.27841958 0.008384703 -0.36343324 0.027039418
-0.5896696 0.15768123 -0.47387174 0.05478818 0.34303373 -0.14470267 0.2505128 -0.39608088
0.3542528 -0.5092164 -0.5379816 0.40612587 0.7814405 0.20774485 -0.39877844 0.57986766
-0.01712318 -0.10773671 -0.21197851 0.35133395 0.860871 -0.3624034 -0.3108622 0.5038151
0.02787727 0.606268 0.48770383 -1.0063444 -0.16604258 0.38379616 -0.18928348 -0.6941865
0.05556071 0.84831953 -0.6420031 -0.10805051 0.5495155 -0.31458244 -0.009830876 -0.22584201
0.31153423 -0.10074773 -0.49816093 0.55798465 0.51576746 0.78548896 -0.54419893 0.47388294
0.885415 0.038133632 -0.5138967 0.63334644 0.6633237 0.250832 0.28821814 0.19331141
0.44697735 -0.3805719 -0.85063785 -1.1269984 -0.17307667 0.24953924 0.31204817 0.26638332
0.0803231 0.52774984 -0.12516387 0.05468822 -0.688625 -0.15335159 -0.5151598 -0.82819843
-0.9896129 0.2410549 -0.45616367 0.6043095 0.09301468 -0.55285263 -0.83211017 0.38643482
00000000: 9901 8c3d ec0d e93c fcbc 00bf 08f8 aabe
00000010: 2e16 6e3f 01d3 fabe e07b 16bf 2b66 393e
00000020: efaa 99bd d619 5d3e 9a2b 243f d873 9cbe
00000030: 83e9 a7be f317 393f ca76 b9be 1fe4 c1bc
00000040: ea61 2bbb 6c5e 9f3e 8bed 1ebe 25d1 f6bc
00000050: f7da 7b3d a993 b03e 0bbb 753e c5ac 7a3c
00000060: dab4 853d 25b8 c1bd 6966 42be 3997 d13e
00000070: 2022 e13e ab7a 533e a644 aebd 89a6 6a3d
00000080: 965c 123f 64b0 0fbe 6c0c 99be c2f1 5a3f
00000090: 8991 473e 2a6c 503e d0e1 453e 946a e8be
000000a0: a7b0 223e 7b34 fdbd 4bb6 e6be 3342 17bf
000000b0: 7dd5 b2bc 7048 203e 3ba9 903e 33a9 563e
000000c0: 3aa7 13bf e095 4b3f 84c2 2ebf b8b8 863d
000000d0: 8ac2 7bbe 5c04 f23d c98d 73be 9f6a 97be
000000e0: 26bb 3abd c669 0cbf ab63 73be 86e9 4a3f
000000f0: c188 14bd 2720 30bf 6ee6 dcbe 8856 403e
00000100: 2dbe 413f f012 4cbf c04b 9cbe d724 7abd
00000110: 259d 873f efae b2be bf37 3abf 49d5 8b3e
00000120: 53b1 1bbe b95c 9c3e 7d84 bf3e ed31 0cbe
00000130: fbc8 bbbe c519 a03e 7bf9 80bf 8792 e83e
00000140: 5d1e 09be 2279 233f 2472 873e db83 bcbe
00000150: 9187 63bf f781 e53c 6e05 1ebc 2c0b a43f
00000160: 1042 04bf 985a b13a 262d b8bd 09d7 a23d
00000170: e7c2 0d3e 49c3 453d 2b69 9bbf 297b 8a3e
00000180: 276c c73e 5280 5f3e 3018 7b3e 170f 3a3f
00000190: 07a1 09bd bfbf 0bbf ffa4 aebe 3369 0dbf
000001a0: f17e 1a3e bf50 60bf a11f a7be d51a 81be
000001b0: 3853 3abf 342c 84bf 08c7 723e 86a1 183f
000001c0: a0cc 9d3e bd3e 713f d346 0fbf 4dcb cbbe
000001d0: 2330 30be 8332 e03e 4950 24be 9d90 92bf
000001e0: 1b50 07bf 80eb b1be 4c82 36be f7c7 1a3f
000001f0: 2c69 0bbc 12fd 4cbf eab3 23be b62d ccbe
00000200: 2f66 9d3e 1d7b 373e b7a7 e1be 86a3 0dbf
00000210: ec1a 583f 272a 0bbf 57db 05bf aad3 e93d
00000220: 288d 103f 96ba 4d3f 2fa7 1e3f 4fbe a93e
00000230: 737c b2be b3db 053f 7e65 4fbf 60b4 0d3e
00000240: db66 863d d843 9f3e 793b 93bd b9af 5fbe
00000250: b7d1 95be 3af8 983e 4488 163e ed36 7e3e
00000260: d68c 87bd 4279 c43e 263a b0be 1ae0 183f
00000270: a5b2 073f af3f c43d 1f49 06bf 7a0b 183f
00000280: 815a cb3e 98ec c33e fa36 093f cd46 643f
00000290: 05a4 cb3e 681c 053d 22ff 6cbe 6b10 bfbe
000002a0: d0cb 45be 09f0 6cbe fe20 3cbe 678f f8be
000002b0: 038d 8ebe fe5f 093c ec13 babe c581 dd3c
000002c0: 96f4 16bf 3077 213e 519f f2be 9269 603d
000002d0: 1ea2 af3e f02c 14be 3743 803e 1dcb cabe
000002e0: 9f60 b53e 025c 02bf 2ab9 09bf bbef cf3e
000002f0: 7c0c 483f 11bb 543e b02c ccbe 3572 143f
00000300: e945 8cbc 10a5 dcbd e510 59be 0be2 b33e
00000310: 0b62 5c3f f08c b9be 5529 9fbe 07fa 003f
00000320: df5e e43c 6134 1b3f 51b4 f93e e5cf 80bf
00000330: 1107 2abe ee80 c43e 87d3 41be 35b6 31bf
00000340: a193 633d 782b 593f 515a 24bf 9649 ddbd
00000350: 0cad 0c3f f310 a1be af11 21bc 2143 67be
00000360: 6a81 9f3e d354 cebd f30e ffbe 15d8 0e3f
00000370: 5609 043f ce15 493f 9f50 0bbf c9a0 f23e
00000380: 8faa 623f 0332 1c3d bc8e 03bf fe22 223f
00000390: 95cf 293f 0d6d 803e 5491 933e 6df3 453e
000003a0: 37da e43e 52da c2be 67c3 59bf 7c41 90bf
000003b0: 033b 31be 3787 7f3e c7c4 9f3e 6563 883e
000003c0: 7080 a43d 9d1a 073f f52a 00be c100 603d
000003d0: ba49 30bf 3308 1dbe 83e1 03bf d004 54bf
000003e0: 4557 7dbf 19d7 763e 498e e9be 07b4 1a3f
000003f0: 7b7e be3d c087 0dbf 2c05 55bf c9da c53e

lstm.weight_hh_l0 f4 [512, 128]
0.019605502 -0.09890039 0.080316514 0.051560376 0.040958058 -0.09573207 0.08472745 -0.15338577
0.04370727 -0.0064902203 0.0049471264 -0.012915367 0.03627927 0.0449129 0.10689626 0.06879303
0.08425394 -0.01044779 -0.0010964447 -0.10347665 -0.37310869 0.08800124 0.02688986 -0.024911068
0.020847134 0.14833362 0.028302621 0.42670482 0.014334651 -0.06017332 0.10030478 -0.1808234
-0.07848859 -0.062243827 -0.049158867 -0.104629785 -0.09971955 -0.22199531 -0.020923853 -0.043818507
0.01780487 -0.021645436 -0.20917875 0.030587537 0.032928832 -0.013890874 -0.29168165 -0.11006534
0.07450878 -0.08048396 0.09559378 0.059811883 -0.3276887 -0.10055134 0.4508181 0.066020936
0.4135644 -0.018491628 0.01080743 0.018522782 0.11416715 -0.104559965 -0.007976136 0.054142404
0.007970956 -0.14570782 0.016264679 0.122567326 -0.057626873 0.124280654 -0.10260908 0.09573438
-0.028163118 0.053985294 -0.046527233 -0.007729631 0.058214236 0.18500872 0.037402906 -0.0036931294
-0.09958014 0.29252106 -0.10666384 0.19510174 0.06133144 -0.117713995 -0.017490445 -0.014608097
-0.09168771 0.22249751 0.13248675 -0.009301249 -0.03813352 0.03989751 -0.021639178 -0.3396356
0.050751373 0.030224018 -0.009126366 0.038310345 0.24651152 0.09974607 0.048715893 -0.016368788
0.09924436 0.113577485 0.1336865 0.040797688 0.47336748 -0.08626055 -0.05091921 -0.059927784
-0.0091432845 -0.013868761 0.044518042 0.49210972 -0.047224555 0.025193976 0.054467257 0.07966219
0.063473694 -0.04278888 -0.0113097755 0.05933338 -0.029610097 -0.12900874 -0.04638244 0.0425904
0.058764875 -0.029066226 0.032039944 0.06953585 0.0097199865 -0.048797276 0.0037716879 0.030190378
0.038628526 0.01255227 -0.0071679736 -0.09142313 0.16988154 0.039745055 0.11017119 0.027742071
0.27879554 0.22583592 -0.031013045 -0.09645584 -0.08816775 0.014073461 -0.0017668706 -0.08262338
0.034374747 -0.05260878 0.050994653 0.255986 0.014075693 0.009872571 -0.0046907486 0.028030269
-0.031126823 -0.029578261 0.0013269 -0.028090183 -0.118117034 -0.05398801 -0.0111197205 0.025420723
-0.18472467 -0.023133768 -0.05083156 0.103885815 -0.08310401 0.14848116 -0.26152822 -0.25153127
0.028998744 0.0067125517 0.020165263 0.06318014 -0.09670021 0.013421405 0.017243018 0.0021753004
0.14540435 0.051654313 -0.08018978 0.07019877 -0.048973247 0.19350214 0.040094465 0.18721965
-0.02487678 -0.037458234 0.13396429 0.26978114 -0.10889914 0.05988102 -0.01164538 -0.33605227
0.05478485 -0.03037048 0.0011561114 -0.036417104 0.1420261 0.14943807 0.030668957 -0.10550195
-0.08846486 0.28567347 -0.09419425 0.27414846 0.05935434 -0.16498333 0.026028715 -0.0067229387
-0.051992536 0.15941389 0.10278447 -0.01950578 -0.032364976 0.031378403 -0.045941316 -0.47472817
-0.018028148 0.07351421 -0.12166685 0.07128793 -0.015928378 -0.091785975 0.07162279 -0.08690756
-0.024642283 -0.0075532277 -0.038190164 0.1394373 0.18381351 -0.06403848 0.0050474633 -0.10993436
-0.021422813 -0.059532654 0.11022138 0.102594644 -0.019226355 0.13082214 -0.03590259 0.13820833
-0.0068059056 0.036875788 -0.062452413 -0.04721996 0.0066687297 -0.14872688 -0.05624984 -0.03481862
00000000: b89b a03c 4a8c cabd fc7c a43d f930 533d
00000010: a3c3 273d 2d0f c4bd 9685 ad3d 2911 1dbe
00000020: 6506 333d eaab d4bb 811b a23b fa9a 53bc
00000030: 9299 143d 97f6 373d 6dec da3d 5ce3 8c3d
00000040: 548d ac3d 352d 2bbc 94b6 8fba 91eb d3bd
00000050: 1a08 bfbe fe39 b43d 2048 dc3c 4c12 ccbc
00000060: 9cc7 aa3c c5e4 173e e6da e73c 0e79 da3e
00000070: e2db 6a3c 4d78 76bd 986c cd3d c529 39be
00000080: a0be a0bd 62f3 7ebd cf5a 49bd 2448 d6bd
00000090: c339 ccbd bd52 63be 8068 abbc 097b 33bd
000000a0: 85db 913c c551 b1bc f432 56be b792 fa3c
000000b0: 62e0 063d 8c96 63bc 4c57 95be f069 e1bd
000000c0: 0f98 983d c6d4 a4bd acc6 c33d 4efd 743d
000000d0: d0c6 a7be dced cdbd a1d1 e63e fc35 873d
000000e0: b7be d33e c17b 97bc a611 313c 17bd 973c
000000f0: 77d0 e93d 8923 d6bd 57ae 02bc 6dc4 5d3d
00000100: 9d98 023c 6e34 15be 813d 853c 9404 fb3d
00000110: 280a 6cbd db86 fe3d b624 d2bd 6310 c43d
00000120: 57b6 e6bc af1f 5d3d 5793 3ebd d848 fdbb
00000130: 0d72 6e3d ed72 3d3e ca33 193d 6e08 72bb
00000140: acf0 cbbd 52c5 953e 9272 dabd c0c8 473e
00000150: ad36 7b3d 0914 f1bd 1f48 8fbc cd56 6fbc
00000160: c4c6 bbbd 63d6 633e 9baa 073e 4464 18bc
00000170: e531 1cbd 926b 233d a544 b1bc b8e4 adbe
00000180: ace0 4f3d 5c98 f73c c186 15bc 4feb 1c3d
00000190: 846d 7c3e ab47 cc3d 518a 473d d617 86bc
000001a0: a140 cb3d 509b e83d 1de5 083e 7a1b 273d
000001b0: 395d f23e 5fa9 b0bd a990 50bd d676 75bd
000001c0: b7cd 15bc cd39 63bc 8d58 363d cef5 fb3e
000001d0: 896e 41bd 9963 ce3c 0f19 5f3d ee25 a33d
000001e0: 7ffe 813d 6543 2fbd a34c 39bc 8f07 733d
000001f0: e090 f2bc de1a 04be 83fb 3dbd 4573 2e3d
00000200: 70b3 703d 4b1c eebc 513c 033d d068 8e3d
00000210: 9440 1f3c a7df 47bd 6c2e 773b d051 f73c
00000220: f238 1e3d 09a8 4d3c 52e1 eabb 0d3c bbbd
00000230: 6df5 2d3e b6cb 223d 6fa1 e13d 5743 e33c
00000240: 4abe 8e3e 8841 673e 120f febc a48a c5bd
00000250: 4b91 b4bd 6094 663c 5796 e7ba 7236 a9bd
00000260: 89cc 0c3d 4e7c 57bd c5df 503d 9910 833e
00000270: bc9d 663c 90c0 213c dab4 99bb bc9f e53c
00000280: aefd febc 1c4e f2bc 60eb ad3a 621d e6bc
00000290: 58e7 f1bd 8822 5dbd 7d2f 36bc 1f3f d03c
000002a0: 7728 3dbe 0783 bdbc c134 50bd 16c2 d43d
000002b0: 6f32 aabd 720b 183e 07e7 85be b5c8 80be
000002c0: c68e ed3c f7f4 db3b 9f31 a53c 9764 813d
000002d0: c20a c6bd 74e5 5b3c 3b41 8d3c 7c8f 0e3b
000002e0: e1e4 143e 7993 533d 8a3a a4bd 5fc4 8f3d
000002f0: 2c98 48bd 6d25 463e 183a 243d 82b6 3f3e
00000300: 64ca cbbc ce6d 19bd ef2d 093e c120 8a3e
00000310: 8306 dfbd cd45 753d 44cc 3ebc 0b0f acbe
00000320: 1466 603d 83cb f8bc a988 973a 1a2a 15bd
00000330: 4a6f 113e 4b06 193e 773d fb3c 6811 d8bd
00000340: 112d b5bd cb43 923e eae8 c0bd 305d 8c3e
00000350: 891d 733d 64f1 28be 2c3a d53c 194c dcbb
00000360: 20f6 54bd 653d 233e aa80 d23d 96ca 9fbc
00000370: 2391 04bd a486 003d f62c 3cbd 920f f3be
00000380: c4af 93bc 9e8e 963d 782c f9bd 68ff 913d
00000390: 3b7c 82bc 49fa bbbd f8ae 923d 97fc b1bd
000003a0: 9dde c9bc 1181 f7bb 4a6d 1cbd a7c8 0e3e
000003b0: 9c39 3c3e 9b26 83bd 3165 a53b 4425 e1bd
000003c0: e57e afbc 83d8 73bd bfbb e13d 241d d23d
000003d0: 9780 9dbc 3df6 053e 980e 13bd 7c86 0d3e
000003e0: 1304 dfbb 110b 173d 1ace 7fbd b769 41bd
000003f0: 5c85 da3b dc4b 18be 3b66 66bd f89d 0ebd

lstm.bias_ih_l0 f4 [512]
0.7433204 0.1461323 0.20294498 0.21941692 0.78440595 0.15443972 0.23751399 0.1625924
0.10252466 0.26233554 0.19509573 0.38982034 0.3180848 0.1557105 0.29964393 0.29348382
0.7429396 0.44153553 0.7759721 0.1840261 0.45087194 0.08798252 0.20225076 0.16015738
0.24464256 0.30658147 0.124750234 0.815898 0.16338168 0.47776443 0.1818034 0.38811877
0.18077096 0.15890121 0.18371333 0.48946938 0.27016935 0.8604847 0.24036692 0.20086956
0.87951195 0.1383601 0.1908094 0.22304091 0.38767093 0.46394178 0.4094716 0.5671151
0.16280204 0.10402533 0.19129603 0.21444578 0.48079333 0.14817399 0.5661483 0.38045812
0.59264225 0.23074012 0.19435404 0.13870075 0.41312045 0.6859138 0.19005615 0.4366959
0.5835346 0.18291692 0.24278095 0.2811504 0.25432777 0.8255178 0.5934587 0.7305706
0.33811095 0.12357532 0.21277113 0.24242541 0.39595845 0.46670353 0.47291926 0.2928513
0.14846075 0.4629999 0.24137492 0.41655433 0.13530771 0.99621683 0.22050908 0.17208204
0.094151095 0.48706582 0.36952135 0.18204747 0.40796262 0.23843823 0.24205077 0.7315639
0.21755315 0.21475387 0.400537 0.18519972 0.75229305 0.2801453 0.202644 0.22375178
0.16920833 0.26758066 0.2008604 0.2928069 0.50623834 0.9171392 0.24373262 0.704913
0.41450542 0.28737265 0.61227256 0.63586104 0.18631798 0.52379626 0.18129684 0.2659375
0.765919 0.250826 0.55154604 0.13160995 0.17613836 0.5643703 0.4032788 0.5509825
-0.03941223 0.03297896 0.08540164 0.019589037 -0.04893796 -0.025423521 -0.031591427 0.07870795
0.014691781 0.011717563 -0.016520306 -0.03127386 0.047833737 0.03773462 0.014433842 -0.034839038
-0.09153128 0.05688474 -0.13358134 0.017040564 0.09685813 0.07805082 0.017170753 0.030778997
-0.07400991 -0.001747557 0.016310368 0.08208269 0.04734219 -0.034136064 0.019996056 -0.056828283
-0.02258925 0.017247945 -0.006012054 -0.0127601 -0.010725406 -0.048762497 0.0049423384 0.026579555
0.024402713 -0.009108376 0.025697766 0.02269356 -0.021424454 -0.053129528 0.06289722 -0.044142388
0.0045705023 0.014125725 0.058918443 0.045168832 0.122554205 0.08032293 0.07914779 -0.10700728
0.16790101 -0.052368455 -0.05818158 -0.032963704 0.026978118 -0.108256646 -0.053515885 -0.0927015
-0.05423944 0.08142859 -0.024206176 -0.04558322 -0.055908874 -0.07578879 -0.101289414 0.09422963
-0.10472893 0.028688498 -0.020962253 0.03893012 -0.035233602 -0.011965888 -0.07691386 -0.06233552
0.031469792 -0.038963906 -0.035083946 -0.022801777 -0.01823567 -0.10432036 0.008696156 -0.045750093
0.021302348 -0.067405455 -0.018014584 0.012917476 -0.007096386 0.0066256835 -0.0099516325 -0.0074284133
0.052648764 -0.03673837 -0.033681147 -0.012436462 -0.057503514 0.009289846 0.03609817 -0.015124386
0.008480555 -0.0009694331 0.010489246 0.03520348 0.16662754 -0.05127659 -0.010179586 -0.06780851
-0.052313462 -0.01161134 -0.067202866 0.11233283 -0.01885972 -0.03752186 -0.040240977 -0.017084781
-0.036296308 -0.014197655 -0.13035919 0.051059496 -0.046506498 -0.067006834 -0.11457585 -0.07955622
00000000: 3f4a 3e3f b5a3 153e cfd0 4f3e d4ae 603e
00000010: d4ce 483f 7225 1e3e de36 733e 9f7e 263e
00000020: 73f8 d13d d850 863e 2dc7 473e 8896 c73e
00000030: 03dc a23e 9372 1f3e ee6a 993e 8343 963e
00000040: 4a31 3e3f f210 e23e 1ca6 463f 5771 3c3e
00000050: b0d8 e63e 2e30 b43d d31a 4f3e 4c00 243e
00000060: 9483 7a3e 3ff8 9c3e 0d7d ff3d b1de 503f
00000070: 874d 273e 8a9d f43e ac2a 3a3e 81b7 c63e
00000080: 061c 393e 00b7 223e 591f 3c3e bb9b fa3e
00000090: a353 8a3e ba48 5c3f bf22 763e c0b0 4d3e
000000a0: b227 613f 45ae 0d3e 8a63 433e d664 643e
000000b0: ce7c c63e c789 ed3e 43a6 d13e 752e 113f
000000c0: 94b5 263e 3b0b d53d 1be3 433e ad97 5b3e
000000d0: 8b2a f63e ecba 173e 18ef 103f 68cb c23e
000000e0: 67b7 173f 2347 6c3e bf04 473e 9207 0e3e
000000f0: 8684 d33e 0c98 2f3f 149e 423e 9b96 df3e
00000100: 8662 153f 934e 3b3e 929b 783e f2f2 8f3e
00000110: 4037 823e 2255 533f e9ec 173f ad06 3b3f
00000120: e11c ad3e 0f15 fd3d ade0 593e 5e3e 783e
00000130: 11bb ca3e c4f3 ee3e 7922 f23e 9bf0 953e
00000140: 1806 183e 530e ed3e fd2a 773e 9c46 d53e
00000150: 1b8e 0a3e 1108 7f3f 22cd 613e 4636 303e
00000160: 4ad2 c03d b160 f93e e731 bd3e a76a 3a3e
00000170: 7ae0 d03e 2729 743e 28dc 773e c647 3b3f
00000180: 41c6 5e3e 70e8 5b3e 3013 cd3e ffa4 3d3e
00000190: 4796 403f 346f 8f3e e981 4f3e 301f 653e
000001a0: f344 2d3e 5500 893e 59ae 4d3e c9ea 953e
000001b0: d698 013f a2c9 6a3f 0b95 793e 2e75 343f
000001c0: 0e3a d43e 8222 933e e5bd 1c3f cac7 223f
000001d0: 24ca 3e3e 8317 063f e1a5 393e f628 883e
000001e0: 4513 443f 446c 803e 1f32 0d3f c2c4 063e
000001f0: 9d5d 343e 927a 103f 8f7a ce3e 300d 0d3f
00000200: b86e 21bd f214 073d 0ee7 ae3d 3079 a03c
00000210: 2c73 48bd fd44 d0bc 0366 01bd a231 a13d
00000220: ccb5 703c 05fb 3f3c 9855 87bc 0519 00bd
00000230: 4fed 433d 9e8f 1a3d ec7b 6c3c 61b3 0ebd
00000240: c074 bbbd f9ff 683d 8cc9 08be a798 8b3c
00000250: 8e5d c63d 1cd9 9f3d aea9 8c3c 3c24 fc3c
00000260: 8292 97bd 480e e5ba 529d 853c f81a a83d
00000270: e2e9 413d 42d2 0bbd c5ce a33c c6c4 68bd
00000280: 170d b9bc 904b 8d3c c400 c5bb bd0f 51bc
00000290: 9db9 2fbc 2fbb 47bd 57f3 a13b 5ebd d93c
000002a0: 33e8 c73c 4c3b 15bc 1f84 d23c d8e7 b93c
000002b0: 5682 afbc 599e 59bd 42d0 803d a6ce 34bd
000002c0: 27c4 953b 966f 673c 7754 713d f402 393d
000002d0: b3fd fa3d 5980 a43d 3d18 a23d a226 dbbd
000002e0: 3eee 2b3e 4e80 56bd cf4f 6ebd f304 07bd
000002f0: 3701 dd3c a9b5 ddbd 7933 5bbd 49da bdbd
00000300: 2d2a 5ebd 08c4 a63d 084c c6bc 78b5 3abd
00000310: b400 65bd 2737 9bbd d370 cfbd 77fb c03d
00000320: 1f7c d6bd 2404 eb3c 08b9 abbc 3175 1f3d
00000330: 1c51 10bd 920c 44bc 0485 9dbd 8853 7fbd
00000340: 78e6 003d 9e98 1fbd 2fb4 0fbd cbca babc
00000350: f962 95bc eaa5 d5bd 527a 0e3c 7364 3bbd
00000360: 4382 ae3c df0b 8abd 5293 93bc d2a3 533c
00000370: cd88 e8bb 431c d93b 2c0c 23bc 0c6a f3bb
00000380: 3ba6 573d f97a 16bd 3ef5 09bd 4dc2 4bbc
00000390: ce88 6bbd 7034 183c addb 133d 46cc 77bc
000003a0: 07f2 0a3c 8e21 7eba 16db 2b3c 8631 103d
000003b0: 69a0 2a3e 6707 52bd 47c8 26bc 30df 8abd
000003c0: a446 56bd 7d3d 3ebc a8a1 89bd c10e e63d
000003d0: b37f 9abc 86b0 19bd b9d3 24bd 62f5 8bbc
000003e0: 70ab 14bd 489d 68bc e17c 05be c323 513d
000003f0: 997d 3ebd e13a 89bd bea6 eabd 5fee a2bd

lstm.bias_hh_l0 f4 [512]
0.7596521 0.21626326 0.23679455 0.24729785 0.8042805 0.14032483 0.27185577 0.20909691
0.07107872 0.32789236 0.20981687 0.39100507 0.31957617 0.21925236 0.32854205 0.26120278
0.7714572 0.43138435 0.792087 0.14627898 0.43582135 0.17469056 0.20558356 0.12779912
0.31395027 0.3520812 0.12023011 0.82946724 0.1863802 0.4006589 0.23711306 0.37625995
0.22456582 0.10996605 0.15642962 0.54411393 0.34360948 0.7986714 0.21846715 0.17482166
0.86436176 0.10684858 0.2332665 0.16354452 0.36799133 0.47611558 0.40064427 0.60130244
0.14610289 0.19209416 0.21348546 0.2590634 0.49112016 0.11354374 0.50975734 0.35825512
0.50399005 0.18814644 0.22393352 0.16480255 0.437107 0.7546822 0.19968663 0.45138454
0.5111871 0.23350878 0.21945141 0.25448292 0.30679354 0.7718031 0.62409085 0.719199
0.38195363 0.15354885 0.18203261 0.18844943 0.41698423 0.45773438 0.4500418 0.3132074
0.20029725 0.50675625 0.23708779 0.44984725 0.16868041 0.9995852 0.15469496 0.112629384
0.12685275 0.5049931 0.36821312 0.17323138 0.4133707 0.22364399 0.17244808 0.79265964
0.19803052 0.15746433 0.40344432 0.114003755 0.6921724 0.3432956 0.22516958 0.18365069
0.20236169 0.2509135 0.23916379 0.24426049 0.5155616 0.9047006 0.2785374 0.7078253
0.33026063 0.19813517 0.6225904 0.63210315 0.13858484 0.5018313 0.14201471 0.28516632
0.7337749 0.22413804 0.5329177 0.16199109 0.23973937 0.4794658 0.45097488 0.5586232
-0.039191324 -0.011949469 0.03528791 -0.022992855 -0.106597826 -0.044880226 -0.008522734 0.055649634
0.07118066 -0.033553194 0.050076485 -0.11520052 -0.017916018 -0.034042023 0.031478796 -0.0653927
-0.068376854 0.033161186 -0.09068909 0.03711976 0.16870347 0.0015843124 -0.048994888 -0.029145902
-0.031628333 -0.010057291 0.045565233 0.10154396 -0.004792491 -0.069636405 0.052400194 -0.053242885
0.0072748633 0.012580673 0.03124586 -0.018776385 -0.026352912 -0.050139982 0.010712064 -0.011797828
-0.0062800646 0.058871478 0.02597276 0.03214435 -0.018208725 -0.06836939 -0.009152652 -0.0107915765
-0.052354936 0.072976775 0.019732218 -0.027753001 0.18427788 0.07889308 0.029451715 -0.09635045
0.1928142 -0.034626897 -0.03921929 -0.061666094 -0.010682576 -0.092478365 -0.03311786 -0.069769286
-0.04315948 0.03897022 -0.05970918 0.010840171 -0.056815904 -0.11890371 -0.079492666 0.123819046
-0.099674344 0.076025866 0.026500126 0.0041118623 -0.07390201 -0.008104401 -0.07253577 0.012694693
0.015731536 -0.05775826 -0.053892635 0.043209538 0.049259216 -0.086451404 0.015082513 0.021235978
0.020716116 -0.03352818 -0.011375323 0.03915819 -0.03865916 0.0018555453 -0.017782278 -0.074493326
-0.02656461 -0.00920485 0.016909864 -0.008789371 -0.057926003 -0.0030655218 0.028623765 -0.0475765
0.07064605 0.037556 0.048002053 0.037953656 0.12693821 -0.035235282 -0.013470521 0.009590891
-0.043402508 -0.0009801213 -0.059715718 0.082390204 0.026626308 -0.09294363 0.025456619 -0.0119578
-0.09124569 -0.02204462 -0.08236428 0.0040767714 -0.041215744 -0.0002060881 -0.036520146 -0.016788032
00000000: 8f78 423f 1e74 5d3e 457a 723e a63b 7d3e
00000010: 54e5 4d3f 50b1 0f3e ae30 8b3e 801d 563e
00000020: b891 913d 82e1 a73e 3cda 563e d131 c83e
00000030: 7d9f a33e b183 603e aa36 a83e 5fbc 853e
00000040: 387e 453f 69de dc3e 37c6 4a3f 28ca 153e
00000050: fa23 df3e 15e2 323e 7f84 523e c6dd 023e
00000060: 17be a03e fd43 b43e 343b f63d f757 543f
00000070: 73da 3e3e 2a23 cd3e c4cd 723e 25a5 c03e
00000080: 95f4 653e e135 e13d 162f 203e 0d4b 0b3f
00000090: 95ed af3e bb75 4c3f dab5 5f3e 7304 333e
000000a0: d046 5d3f 6ed3 da3d 6add 6e3e 3778 273e
000000b0: 5c69 bc3e 6cc5 f33e 3f21 cd3e f5ee 193f
000000c0: ff9b 153e 55b4 443e ef9b 5a3e f5a3 843e
000000d0: 1a74 fb3e 9f89 e83d 757f 023f 376d b73e
000000e0: 7e05 013f 76a9 403e d44e 653e 00c2 283e
000000f0: 7dcc df3e da32 413f a77a 4c3e e01b e73e
00000100: 28dd 023f ed1c 6f3e dfb7 603e 964b 823e
00000110: 0b14 9d3e e394 453f 6bc4 1f3f 6d1d 383f
00000120: 6d8f c33e e93b 1d3e c266 3a3e e3f8 403e
00000130: f57e d53e 295c ea3e e16b e63e b85c a03e
00000140: b91a 4d3e c7ba 013f 24c7 723e 6152 e63e
00000150: 8fba 2c3e d1e4 7f3f 5b68 1e3e 3caa e63d
00000160: b0e5 013e 3a47 013f 6e86 bc3e 9163 313e
00000170: 53a5 d33e ee02 653e 3b96 303e beeb 4a3f
00000180: 83c8 4a3e 543e 213e 4190 ce3e cd7a e93d
00000190: 3632 313f 71c4 af3e db92 663e ed0e 3c3e
000001a0: e737 4f3e bc77 803e 5ae7 743e 6c1f 7a3e
000001b0: d8fb 033f 759a 673f 749c 8e3e 0a34 353f
000001c0: ec17 a93e f2e3 4a3e 1662 1f3f 83d1 213f
000001d0: 2fe9 0d3e 0478 003f 4e6c 113e 5201 923e
000001e0: acd8 3b3f 7184 653e 4b6d 083f fee0 253e
000001f0: 3d7e 753e 8b7c f53e 2ee6 e63e ee01 0f3f
00000200: 1587 20bd b5c7 43bc 0e8a 103d 835b bcbc
00000210: f64f dabd 54d4 37bd f0a2 0bbc dff0 633d
00000220: 2ac7 913d 136f 09bd 001d 4d3d 40ee ebbd
00000230: 9dc4 92bc a66f 0bbd e9ef 003d 9cec 85bd
00000240: 2a09 8cbd 06d4 073d 34bb b9bd e40a 183d
00000250: 9ac0 2c3e b4a8 cf3a ddae 48bd 63c3 eebc
00000260: b68c 01bd 56c7 24bc 9ca2 3a3d 48f6 cf3d
00000270: 540a 9dbb 889d 8ebd 96a1 563d 3615 5abd
00000280: fa61 ee3b 2b1f 4e3c 51f7 ff3c efd0 99bc
00000290: 10e2 d7bc 955f 4dbd a781 2f3c ad4b 41bc
000002a0: 00c9 cdbb 3823 713d d3c4 d43c cba9 033d
000002b0: 772a 95bc 4005 8cbd 01f5 15bc 27cf 30bc
000002c0: 2172 56bd d974 953d 76a5 a13c 435a e3bc
000002d0: 57b3 3c3e b292 a13d b944 f13c 6253 c5bd
000002e0: 1671 453e efd4 0dbd 68a4 20bd 9695 7cbd
000002f0: f905 2fbc 4c65 bdbd 98a6 07bd 33e3 8ebd
00000300: ffc7 30bd 3d9f 1f3d 9d91 74bd f99a 313c
00000310: cbb7 68bd ca83 f3bd 0dcd a2bd d794 fd3d
00000320: 1022 ccbd 73b3 9b3d cb16 d93c cdbc 863b
00000330: f059 97bd 52c8 04bc a28d 94bd 67fd 4f3c
00000340: 6cdf 803c ed93 6cbd 86be 5cbd 7cfc 303d
00000350: 08c4 493d 6f0d b1bd a51c 773c 13f7 ad3c
00000360: d8b4 a93c d854 09bd 905f 3abc 5764 203d
00000370: 1159 1ebd c535 f33a 24ac 91bc f58f 98bd
00000380: 069e d9bc f0cf 16bc 8e86 8a3c 4b01 10bc
00000390: d143 6dbd ece6 48bb 637c ea3c 93df 42bd
000003a0: e0ae 903d 52d4 193d cd9d 443d 4b75 1b3d
000003b0: 17fc 013e df52 10bd 76b3 5cbc 1d23 1d3c
000003c0: d4c6 31bd 6a77 80ba 7898 74bd 32bc a83d
000003d0: 6a1f da3c 3b59 bebd 668a d03c a6ea 43bc
000003e0: 05df babd eb96 b4bc 9bae a8bd 7096 853b
000003f0: d7d1 28bd 5a19 58b9 2696 15bd 0e87 89bc

fc.weight f4 [89, 128]
0.26590466 0.1660823 -0.2085977 -0.5986699 0.41670758 -0.08514911 -0.03369188 0.11670818
-0.14976868 -0.026358474 0.40679613 0.2239588 -0.33820105 0.0824149 0.18255264 0.3161433
0.15157422 0.014820857 0.5695226 0.20570178 0.745252 -0.26187366 0.43595 -0.4608006
0.31306288 -0.12114865 -0.31674215 0.51488346 0.24827912 -0.32090536 -0.09712307 -0.6259649
0.32973993 0.010846059 -0.16846564 -0.056610603 -0.055339422 0.3824305 -0.0018326816 0.07051181
0.33833024 0.06783985 0.17298473 0.27118343 0.30670157 -0.39178503 0.71323353 -0.21197954
-0.38486904 0.005630386 -0.18038428 -0.23874542 0.77710086 0.1594187 -0.86244124 0.10135573
-0.8706541 0.2599314 0.35279992 0.3958263 0.48901927 0.28905955 -0.39677784 -0.617127
0.2498086 0.14735186 0.20912795 -0.3526626 0.253393 -0.34108722 -0.38259563 0.35676727
-0.40711886 -0.036943596 0.06978499 -0.43956047 -0.08047538 0.104706034 -0.1820699 0.32409012
0.05653506 -0.73031723 0.18212512 -0.7148823 0.14947923 -0.53191304 -0.24268167 -0.23808253
0.4700915 -0.67406934 0.38196522 -0.16308653 -0.10428103 -0.16037968 -0.22357701 1.0868031
0.4269868 0.17690566 0.22594464 0.13546479 -0.6510187 0.17500894 -0.0766448 -0.0631747
-0.246259 0.3248566 -0.12440192 -0.52578247 -0.85806507 -0.51720786 -0.63855 0.523177
0.08426979 0.44827077 -0.548939 -0.7826651 0.044874024 0.51515764 0.054233126 0.10155736
0.3525431 -0.21505113 -0.3271852 -0.22127338 -0.24053578 -0.3993318 -0.2381371 -0.28204656
-0.28839418 0.30660382 -0.2925263 -0.3560492 -0.19325337 0.16217172 -0.28169045 0.29359606
-0.3193153 -0.26759684 -0.10224419 -0.2788561 -0.30554914 -0.3091865 -0.1750569 0.1320498
-0.270035 -0.18169563 0.014305473 0.32426465 0.65041107 -0.34125692 0.042349506 0.016701432
-0.05029533 -0.3637193 -0.34945154 -0.4743733 0.30167675 0.25115964 -0.44875756 0.058861364
0.26232344 0.30593082 -0.16943078 -0.036159728 0.029597986 0.19245258 -0.3302091 0.3022069
-0.22879085 0.2972092 0.40941492 -0.14491053 0.18346663 -0.05498036 0.6576377 0.095318414
-0.28699052 0.31098685 -0.3317256 -0.27575505 0.7776831 0.29732347 -0.613111 -0.036454238
-0.66006094 -0.039610967 0.18525138 -0.095430225 0.060609262 0.13955605 -0.1721331 -0.4599302
0.06659854 0.4639639 -0.19925396 -0.25807413 0.31456006 0.023456134 -0.24245162 0.061341986
-0.1647213 -0.27915153 0.3066967 0.023744082 -0.29916564 -0.36829212 0.057229135 0.07498544
0.3183067 -0.6287653 0.26771253 -0.61643046 -0.25178882 0.21251026 0.13414651 0.057425275
0.23539682 -0.5134435 -0.13238585 0.08031403 0.23662996 -0.2815972 0.21313424 0.7442166
-0.11891978 -0.20741618 0.24361782 -0.15459874 -0.45978254 -0.24314511 0.1516867 0.17295556
-0.49106026 0.14050765 -0.37052014 -0.28784683 -0.7898688 0.033620607 -0.30795553 0.114959985
-0.0295156 -0.003584128 -0.5241442 -0.7236265 0.1587909 0.033572182 -0.15967156 0.008546141
-0.17307885 -0.060006812 0.02992229 -0.35437387 -0.08120891 0.089960545 0.18213688 0.079831064
00000000: a824 883e 7a11 2a3e a39a 55be 6e42 19bf
00000010: b25a d53e a862 aebd 7f00 0abd b304 ef3d
00000020: f65c 19be baed d7bc 9547 d03e 7555 653e
00000030: b028 adbe 25c9 a83d 14ef 3a3e 89dd a13e
00000040: 4636 1b3e 2ed3 723c 3ccc 113f 7da3 523e
00000050: d6c8 3e3f 4e14 86be d734 df3e 0eee ebbe
00000060: c749 a03e c91c f8bd 072c a2be 67cf 033f
00000070: e23c 7e3e b54d a4be 76e8 c6bd 3c3f 20bf
00000080: acd3 a83e abb3 313c 4282 2cbe 85e0 67bd
00000090: 97ab 62bd eecd c33e 9736 f0ba 7f68 903d
000000a0: 9f39 ad3e 9fef 8a3d e922 313e 8ed8 8a3e
000000b0: fd07 9d3e 0c98 c8be 7996 363f 2a11 59be
000000c0: 8e0d c5be 1a7f b83b a8b6 38be ae79 74be
000000d0: 15f0 463f a83e 233e f3c8 5cbf 9893 cf3d
000000e0: 30e3 5ebf ba15 853e 31a2 b43e bfa9 ca3e
000000f0: bc60 fa3e 9dff 933e 7726 cbbe 09fc 1dbf
00000100: d3cd 7f3e 68e3 163e a325 563e 3190 b4be
00000110: babc 813e fca2 aebe 93e3 c3be 33aa b63e
00000120: e271 d0be 2b52 17bd 6feb 8e3d 120e e1be
00000130: 47d0 a4bd 1e70 d63d 8870 3abe 24ef a53e
00000140: 4f91 673d 12f6 3abf 027f 3a3e 8702 37bf
00000150: 1511 193e 742b 08bf 8b81 78be e8cb 73be
00000160: d5af f03e cf8f 2cbf f290 c33e 2800 27be
00000170: 4b91 d5bd 923a 24be 5ff1 64be 5d1c 8b3f
00000180: 049e da3e c226 353e 085e 673e 48b7 0a3e
00000190: 29a9 26bf 8b35 333e f3f7 9cbd bd61 81bd
000001a0: 522b 7cbe 9b53 a63e 6fc6 febd ae99 06bf
000001b0: 27aa 5bbf bc67 04bf 0378 23bf eeee 053f
000001c0: a495 ac3d bf83 e53e 4487 0cbf bd5c 48bf
000001d0: d3cd 373d 5fe1 033f 8e23 5e3d 4efd cf3d
000001e0: 8780 b43e 5d36 5cbe d284 a7be 7d95 62be
000001f0: 034f 76be 3875 ccbe 36da 73be 6868 90be
00000200: 67a8 93be 2dfb 9c3e 02c6 95be 154c b6be
00000210: 36e4 45be 5810 263e bb39 90be 3952 963e
00000220: 4c7d a3be 7402 89be 6765 d1bd 3ac6 8ebe
00000230: f070 9cbe b14d 9ebe 1e42 33be 1038 073e
00000240: 0742 8abe 6b0e 3abe 8161 6a3c 0406 a63e
00000250: 5781 263f 3ab9 aebe ad76 2d3d 71d1 883c
00000260: 7a02 4ebd 6b39 babe 50eb b2be 0fe1 f2be
00000270: 6075 9a3e ff97 803e 8dc3 e5be 9d18 713d
00000280: 424f 863e f7a2 9c3e 437f 2dbe 391c 14bd
00000290: 7a77 f23c 4a12 453e 2b11 a9be ddba 9a3e
000002a0: 2648 6abe ce2b 983e d59e d13e 6d63 14be
000002b0: adde 3b3e 1633 61bd f25a 283f 4d36 c33d
000002c0: 6cf0 92be ab39 9f3e f0d7 a9be c42f 8dbe
000002d0: 3d16 473f c83a 983e d8f4 1cbf 0a51 15bd
000002e0: c1f9 28bf 1c3f 22bd 8ab2 3d3e ec70 c3bd
000002f0: 6b41 783d c8e7 0e3e a943 30be f97b ebbe
00000300: d164 883d ad8c ed3e 3b09 4cbe 4b22 84be
00000310: 040e a13e 1427 c03c 3d45 78be bc41 7b3d
00000320: b3ac 28be f3ec 8ebe 5a07 9d3e f382 c23c
00000330: 3d2c 99be c990 bcbe 1969 6a3d f791 993d
00000340: 19f9 a23e c3f6 20bf 9e11 893e 63ce 1dbf
00000350: 77ea 80be 4a9c 593e b45d 093e c436 6b3d
00000360: dd0b 713e 0971 03bf 2890 07be af7b a43d
00000370: 204f 723e 822d 90be dd3f 5a3e fb84 3e3f
00000380: 378c f3bd e864 54be f376 793e 224f 1ebe
00000390: 9e68 ebbe 08fb 78be c253 1b3e 431b 313e
000003a0: 406c fbbe 3de1 0f3e d1b4 bdbe a960 93be
000003b0: d734 4abf c3b5 093d 59ac 9dbe 2470 eb3d
000003c0: b3ca f1bc b1e3 6abb 502e 06bf 963f 39bf
000003d0: 159a 223e fc82 093d f180 23be 1d05 0c3c
000003e0: 953b 31be b4c9 75bd 971f f53c 7e70 b5be
000003f0: db50 a6bd 3c3d b83d 1782 3a3e 787e a33d

fc.bias f4 [89]
-0.12229468 -0.110337704 -0.16186 -0.13665982 -0.1863675 -0.12010781 -0.16516843 -0.14221211
-0.14589596 -0.107944064 -0.08514251 -0.088615544 -0.1266194 -0.08737398 -0.17850855 -0.119742215
-0.13296986 -0.12151162 -0.1552028 -0.09520991 -0.09477717 -0.0998961 -0.13922587 -0.09070705
-0.10937087 -0.1084374 -0.07080859 0.01434214 -0.13681976 0.018345814 -0.162686 -0.0971923
-0.11230749 -0.17215766 -0.21037827 -0.21825247 -0.19075948 -0.14014696 -0.31271124 -0.2519177
-0.25212082 -0.27988803 -0.19743824 -0.21361907 -0.20809136 -0.27524108 -0.30150756 -0.26810417
-0.2798488 -0.18113026 -0.22461027 -0.25598615 -0.2252294 -0.30392686 -0.27515706 -0.1820814
-0.20406093 -0.20150486 -0.14779392 -0.12216451 0.027142566 -0.112731196 -0.06704483 -0.14827967
-0.14419372 0.016882177 -0.061155457 -0.084186755 -0.07716966 -0.1440015 -0.13526829 -0.17005345
-0.1219666 -0.1546297 -0.09659701 -0.089288056 -0.13491395 -0.15824437 -0.11079738 -0.10050278
-0.15758835 -0.089307845 -0.14505419 -0.09684926 -0.16938953 -0.17693065 -0.093417265 -0.12318988
-0.14768235
00000000: a275 fabd bcf8 e1bd a1be 25be 8df0 0bbe
00000010: 1fd7 3ebe 15fb f5bd ea21 29be 0da0 11be
00000020: c065 15be c711 ddbd 325f aebd 117c b5bd
00000030: 84a8 01be 21f1 b2bd f2ca 36be 683b f5bd
00000040: 4029 08be 16db f8bd 7ced 1ebe 6afd c2bd
00000050: 881a c2bd 5496 ccbd 3a91 0ebe 9ec4 b9bd
00000060: d6fd dfbd 6d14 debd 1804 91bd 4cfb 6a3c
00000070: 7b1a 0cbe f649 963c 2997 26be c20c c7bd
00000080: 7801 e6bd 194a 30be 676d 57be 937d 5fbe
00000090: 7456 43be af82 0fbe b01b a0be 5bfb 80be
000000a0: fb15 81be 7c4d 8fbe 402d 4abe f5be 5abe
000000b0: e715 55be 66ec 8cbe 335f 9abe f344 89be
000000c0: 5848 8fbe 367a 39be 3c00 66be 9e10 83be
000000d0: 89a2 66be 4d9c 9bbe 63e1 8cbe 8c73 3abe
000000e0: 59f5 50be 4a57 4ebe 4a57 17be 6331 fabd
000000f0: 165a de3c 9ddf e6bd cd4e 89bd a0d6 17be
00000100: 85a7 13be 7e4c 8a3c 257e 7abd 1b6a acbd
00000110: 200b 9ebd 2175 13be c583 0abe 7e22 2ebe
00000120: a0c9 f9bd 4057 1ebe a7d4 c5bd a8dc b6bd
00000130: e226 0abe d00a 22be bde9 e2bd 67d4 cdbd
00000140: d75e 21be 08e7 b6bd 1689 14be e858 c6bd
00000150: 7374 2dbe 4f2d 35be 8d51 bfbd fa4a fcbd
00000160: 0b3a 17be
